pretrained/best_12|24-11:13:13.pt (torch, 20204 bytes, 16 tensors)

embedding.weight f4 [27, 64]
-0.14557186 0.016086848 0.041906554 0.06457306 0.05322673 -0.12304272 0.124398895 -0.00015952716
0.06784144 0.0248909 -0.03321346 0.06116775 0.06788687 0.041718274 0.029947191 0.071571834
0.0060726725 0.03303439 0.054197304 0.06563303 -0.08403867 -0.12937634 0.03805002 0.02194945
0.060112298 0.027170343 0.06397306 0.12870875 -0.06449856 0.044206176 0.07860906 0.054841146
0.057123285 -0.066492744 0.09698505 0.13092992 -0.11368662 0.09535191 -0.0679705 -0.021016529
0.03725849 0.07980524 -0.0010627634 -0.060211677 -0.005183681 0.041758616 -0.03793951 0.07229989
0.12945783 0.051746085 0.03725639 0.007959339 -0.09825457 -0.032038942 -0.03354452 -0.08752536
0.084615864 -0.031059349 -0.06109907 0.13032137 0.0039344025 0.07674131 0.13592461 0.031094125
0.030846415 0.16487138 -0.26484767 -0.112324685 0.001965469 -0.2634382 -0.040411253 0.09895674
-0.15504266 0.02013834 0.024430016 -0.0036016386 -0.02513109 -0.23749678 0.119521715 -0.1550027
-0.29788637 0.08848531 -0.30967596 0.15032741 -0.15363184 0.033768587 -0.005440672 -0.2008557
0.23594287 0.15743278 -0.3593038 -0.0038020927 -0.02637006 0.14290884 -0.1841949 0.07800538
0.0831494 -0.36206907 -0.13086341 -0.39271006 0.015125118 0.12876157 -0.1346301 0.06716868
-0.01847808 -0.25574392 -0.06617618 -0.06846945 -0.23938577 0.040982425 -0.04314031 -0.297188
0.13348961 0.085088804 -0.14591567 0.065018624 0.03235829 -0.08349569 -0.1076355 -0.2709949
-0.020336675 0.0871952 -0.032198317 -0.12640215 0.04575466 -0.24068783 -0.33013293 0.177628
0.0781157 0.12065732 -0.047915813 -0.1183641 -0.12366786 -0.0054524573 -0.09740219 0.06814301
-0.09237146 0.038521588 -0.128782 -0.049569536 0.099414155 -0.1546686 0.03492049 -0.13832231
0.036168523 -0.10842663 -0.09300474 -0.0474873 -0.022689985 0.041782144 -0.11931426 0.023046248
0.06799478 0.035791833 0.12757358 0.10249769 -0.02470839 0.017785348 0.11526371 0.042003952
-0.017780107 0.077017635 -0.099718705 0.0889922 0.08323545 -0.14760254 -0.083617955 0.25960782
0.13903163 0.039139353 0.018645009 0.057849053 0.02218648 -0.115184486 0.1040284 0.0335925
0.08739241 0.0943332 -0.15514654 -0.06237622 0.04867843 0.042278294 -0.057094544 0.0012896693
0.037708603 -0.1386615 0.036295462 -0.01365797 -0.0730582 -0.10317391 0.06975057 -0.09585681
-0.15496887 0.10467744 -0.106888376 -0.05562187 0.129011 -0.13656811 -0.081502445 -0.119329706
-0.018360294 -0.09357182 -0.025410678 0.08510355 0.006819711 0.009107793 0.019587867 -0.09965241
-0.10191749 0.0044078776 -0.082070686 0.082029894 -0.07082345 0.0442413 -0.08640798 -0.015096481
-0.03951065 -0.03368654 0.08859065 -0.13509943 0.100106575 0.015950184 0.008485007 -0.01573501
0.09392599 -0.023242302 -0.08735317 -0.027558852 -0.112709865 -0.14024572 0.062082663 0.04502853
-0.11994399 0.0097264275 -0.04018561 -0.04125549 0.066313624 -0.20493399 0.13703758 -0.14085595
-0.08209638 -0.10547681 0.06998028 0.09492596 0.17183505 0.10798941 0.041509036 -0.112494916
-0.13435157 0.012022523 -0.14236312 0.014723139 0.07268097 -0.02749778 -0.17319693 0.09641108
00000000: ca10 15be 91c8 833c 35a6 2b3d e13e 843d
00000010: 4604 5a3d d2fd fbbd d9c4 fe3d bf46 27b9
00000020: 74f0 8a3d 00e8 cb3c d60a 08bd 098b 7a3d
00000030: 4508 8b3d c8e0 2a3d d053 f53c 4194 923d
00000040: 45fd c63b 124f 073d fefd 5d3d 9c6a 863d
00000050: 771c acbd 3b7b 04be 56da 1b3d 55cf b33c
00000060: 5038 763d 5794 de3c 4f04 833d 3acc 033e
00000070: d217 84bd 8911 353d c9fd a03d 1ca1 603d
00000080: 1bfa 693d 592d 88bd 19a0 c63d 7e12 063e
00000090: 88d4 e8bd dd47 c33d 1e34 8bbd db2a acbc
000000a0: 5c9c 183d ee70 a33d 6c4c 8bba 85a0 76bd
000000b0: dedb a9bb 150b 2b3d 7666 1bbd f711 943d
000000c0: 9890 043e b4f3 533d 289a 183d e367 023c
000000d0: b139 c9bd 443b 03bd fb65 09bd 7f40 b3bd
000000e0: 154b ad3d 2d70 febc 0543 7abd f772 053e
000000f0: 29ec 803b 8c2a 9d3d d22f 0b3e 1bb9 fe3c
00000100: 9fb1 fc3c 0bd4 283e 1d9a 87be 7c0a e6bd
00000110: 19cf 003b 5fe1 86be 4586 25bd d5a9 ca3d
00000120: 81c3 1ebe 29f9 a43c 7521 c83c 7809 6cbb
00000130: b7df cdbc 5b32 73be cdc7 f43d 07b9 1ebe
00000140: 9084 98be c937 b53d d98d 9ebe 6eef 193e
00000150: aa51 1dbe ee50 0a3d aa47 b2bb 1ead 4dbe
00000160: 029b 713e 0f36 213e abf6 b7be 882c 79bb
00000170: 0606 d8bc b256 123e 969d 3cbe 49c1 9f3d
00000180: 3c4a aa3d 1e61 b9be 0f01 06be 4b11 c9be
00000190: 58cf 773c 13da 033e 79dc 09be bc8f 893d
000001a0: 585f 97bc def0 82be 6187 87bd b639 8cbd
000001b0: 8b21 75be 30dd 273d e5b3 30bd 0729 98be
000001c0: 80b1 083e 0a43 ae3d eb6a 15be 7c28 853d
000001d0: 208a 043d caff aabd 0070 dcbd d8bf 8abe
000001e0: 1999 a6bc 6693 b23d 62e2 03bd 916f 01be
000001f0: 3d69 3b3d df76 76be 2f07 a9be 1de4 353e
00000200: 20fb 9f3d 2f1b f73d 5f43 44bd e168 f2bd
00000210: 9345 fdbd 87aa b2bb cd7a c7bd 908e 8b3d
00000220: 3f2d bdbd d0c8 1d3d 6edf 03be 6d09 4bbd
00000230: a699 cb3d 7261 1ebe ca08 0f3d 5da4 0dbe
00000240: 7225 143d c80e debd 4579 bebd 0b82 42bd
00000250: 59e0 b9bc c123 2b3d 095b f4bd 7ccb bc3c
00000260: d940 8b3d 759a 123d a6a2 023e 4fea d13d
00000270: 4069 cabc 94b2 913c 610f ec3d 560c 2c3d
00000280: 96a7 91bc 6cbb 9d3d 5239 ccbd 8b41 b63d
00000290: 5977 aa3d 1f25 17be e43f abbd 51eb 843e
000002a0: 4f5e 0e3e 9650 203d 6bbd 983c 21f3 6c3d
000002b0: 6cc0 b53c d8e5 ebbd d70c d53d 4a98 093d
000002c0: cbfa b23d c431 c13d bcde 1ebe 357e 7fbd
000002d0: 0963 473d 012c 2d3d f8db 69bd 1f0a a93a
000002e0: 5674 1a3d 48fd 0dbe 8daa 143d aec5 5fbc
000002f0: 8a9f 95bd d84c d3bd 63d9 8e3d 9350 c4bd
00000300: 29b0 1ebe 2061 d63d 4be8 dabd c2d3 63bd
00000310: 761b 043e 83d8 0bbe c1ea a6bd 2263 f4bd
00000320: 5468 96bc 95a2 bfbd 0e2a d0bc c54a ae3d
00000330: e277 df3b da38 153c bc76 a03c 9016 ccbd
00000340: 1eba d0bd f56f 903b ad14 a8bd 4aff a73d
00000350: e30b 91bd 5e36 353d abf6 b0bd 3b57 77bc
00000360: ebd5 21bd e6fa 09bd 046f b53d 8157 0abe
00000370: ad04 cd3d f6a9 823c b304 0b3c b5e6 80bc
00000380: 455c c03d a466 bebc 38e6 b2bd 1ac3 e1bc
00000390: 6ed4 e6bd 939c 0fbe 644a 7e3d d66f 383d
000003a0: 32a5 f5bd 985b 1f3c ab99 24bd 84fb 28bd
000003b0: 70cf 873d 37da 51be 9453 0c3e 8b3c 10be
000003c0: 2622 a8bd 3a04 d8bd d251 8f3d 8b68 c23d
000003d0: 87f5 2f3e 8d29 dd3d 6105 2a3d bc63 e6bd
000003e0: 7593 09be 1efa 443c a3c7 11be 5239 713c
000003f0: c3d9 943d 0643 e1bc 895a 31be 2c73 c53d

bn_outlayer_in.weight f4 [64]
0.9438995 1.0572103 1.1075833 1.0835106 0.94703436 1.0424918 1.1224293 0.9527132
0.97921526 0.9596644 1.1484592 0.94812024 0.9571069 0.9588439 0.9539765 1.0179595
0.95231974 0.9597005 0.98810065 1.0289433 0.9999631 0.9506307 0.93794376 0.9588261
0.99578005 0.9984932 0.9544332 0.95307285 0.95991945 0.97881216 1.0145127 0.9811269
1.0160043 0.9738661 1.1134444 0.9819851 0.972097 0.9603965 0.97802716 1.1614101
1.0287445 0.93388253 1.0335152 1.0083219 1.091625 1.0185381 0.9619754 0.9710351
0.9723023 0.9429525 0.9562635 1.0124416 0.94595075 0.98916036 1.0197463 1.0060569
0.98477215 0.96130896 0.9759067 0.97109663 1.0164887 1.0309964 0.960508 1.0268848
00000000: 66a3 713f ab52 873f 4ac5 8d3f 7ab0 8a3f
00000010: d870 723f 5f70 853f c3ab 8f3f 03e5 733f
00000020: daad 7a3f 91ac 753f b600 933f 02b8 723f
00000030: f504 753f cb76 753f ce37 743f 7f4c 823f
00000040: 3acb 733f efae 753f 2af4 7c3f 6ab4 833f
00000050: 95fd 7f3f 895c 733f 151d 703f a175 753f
00000060: 71eb 7e3f 409d 7f3f bc55 743f 95fc 733f
00000070: 48bd 753f 6f93 7a3f 8ddb 813f 222b 7b3f
00000080: 6e0c 823f 4a4f 793f 5985 8e3f 6063 7b3f
00000090: 59db 783f 8cdc 753f fd5f 7a3f 16a9 943f
000000a0: e6ad 833f ed12 6f3f 3a4a 843f b110 813f
000000b0: 5eba 8b3f 755f 823f 0544 763f c295 783f
000000c0: cee8 783f 5665 713f afcd 743f b097 813f
000000d0: d429 723f 9d39 7d3f 0c87 823f 79c6 803f
000000e0: 071a 7c3f 5818 763f 06d5 793f ca99 783f
000000f0: 4d1c 823f b1f7 833f dae3 753f f670 833f

bn_outlayer_in.bias f4 [64]
-0.051951654 0.027956598 -0.00022108118 0.043196116 -0.00031825725 0.110410236 0.06451303 -0.04712552
0.04727682 -0.015201574 0.14498034 -0.025211649 -0.04782242 0.048704617 -0.07409126 0.05760869
-0.08437384 -0.058711786 -0.01678863 -0.026527518 -0.010091525 -0.06402274 -0.10311152 -0.05540029
0.005886658 -0.07344843 -0.053240273 -0.055272907 -0.004586393 -0.09429358 0.06408783 -0.034443617
0.02389077 -0.07534956 0.04566742 -0.021292927 -0.009185438 -0.0115827015 -0.021653716 0.013463039
0.028194275 -0.07065374 -0.10413952 0.011511 0.07246745 0.041668516 -0.0029066748 0.028635267
0.04280229 -0.07165131 0.016596245 0.05266096 -0.013957905 -0.00017798704 -0.052524984 0.019802991
0.054289315 -0.07644453 0.032357715 0.05322573 -0.0008884755 0.11283843 -0.0151768755 0.057710703
00000000: 42cb 54bd 3c05 e53c 07d2 67b9 69ee 303d
00000010: c4db a6b9 c31e e23d 681f 843d b006 41bd
00000020: 57a5 413d 0610 79bc ba75 143e a988 cebc
00000030: 71e1 43bd 7e7e 473d 29bd 97bd 17f7 6b3d
00000040: 31cc acbd c57b 70bd 4f88 89bc 3d50 d9bc
00000050: ec56 25bc 5b1e 83bd 222c d3bd 6aeb 62bd
00000060: dee4 c03b 216c 96bd 7912 5abd d865 62bd
00000070: 7449 96bb fe1c c1bd 7b40 833d c014 0dbd
00000080: 93b6 c33c df50 9abd c30d 3b3d 816e aebc
00000090: 857e 16bc 5fc5 3dbc 2263 b1bc 1494 5c3c
000000a0: aef7 e63c e8b2 90bd 1a47 d5bd a298 3c3c
000000b0: d069 943d 9bac 2a3d e97d 3ebb 8294 ea3c
000000c0: 7451 2f3d ecbd 92bd d9f4 873c 05b3 573d
000000d0: b2af 64bc 08a2 3ab9 7024 57bd e239 a23c
000000e0: 795e 5e3d f38e 9cbd 8689 043d 3903 5a3d
000000f0: 95e8 68ba d617 e73d 6ea8 78bc 0f62 6c3d

bn_outlayer_in.running_mean f4 [64]
-0.0048150355 0.0028881282 0.0002041421 -0.017516445 -0.009155966 -0.020756867 -0.023126712 -0.002114718
-0.020806912 -0.0018472115 0.00037622981 -0.0046458445 -0.0014131006 -0.013680021 0.0011175158 -0.021947442
-0.00016038558 -0.00049668737 -0.0034052988 -0.00062191224 -0.00034407244 0.005160007 -0.009107886 -0.002413498
-0.0027012518 0.00365997 -0.007229541 -0.008217936 -0.012294875 0.0025383057 -0.021894535 -0.0012288281
0.0015224551 0.0035700297 -0.02021211 -0.007375261 -0.0045784335 -0.00253488 -0.00078809424 0.0013416759
-0.027222672 -0.005909717 0.0018728396 -0.02066723 0.0036499833 0.0009065357 -0.003206256 -0.013871374
-0.016639378 -0.0070747114 -0.015766745 0.003920019 -0.0014428867 4.208385e-05 -0.0018834132 -0.0066900426
-0.02024265 -0.0001626643 -0.018166976 -0.021193089 7.8171e-05 0.0045853993 -0.008814029 0.004082457
00000000: 72c7 9dbb c046 3d3b fa0e 5639 a67e 8fbc
00000010: e802 16bc 4e0a aabc 3b74 bdbc 1597 0abb
00000020: 4273 aabc 221e f2ba b640 c539 2b3c 98bb
00000030: ca37 b9ba 2b22 60bc 9c79 923a 1fcb b3bc
00000040: 2d2d 28b9 2034 02ba 6f2b 5fbb d307 23ba
00000050: 9f64 b4b9 4715 a93b 3e39 15bc c72b 1ebb
00000060: 7c07 31bb 1bdc 6f3b c9e5 ecbb 86a4 06bc
00000070: 7270 49bc b459 263b 2b5c b3bc a110 a1ba
00000080: 1e8d c73a 29f7 693b de93 a5bc 2cac f1bb
00000090: af06 96bb 3b20 26bb 1c98 4eba 2cdb af3a
000000a0: 1502 dfbc 4da6 c1bb 127a f53a 534e a9bc
000000b0: 8f34 6f3b 95a4 6d3a 0d20 52bb c244 63bc
000000c0: 4e4f 88bc fbd2 e7bb 4329 81bc 8173 803b
000000d0: 3e1f bdba 3183 3038 dcdc f6ba 2538 dbbb
000000e0: ead3 a5bc de90 2ab9 e9d2 94bc 219d adbc
000000f0: bcef a338 1e41 963b b868 10bc 22c6 853b

bn_outlayer_in.running_var f4 [64]
0.007804345 0.002687185 0.0046574506 0.000725537 0.0031747073 0.0076345117 0.0007269742 0.0020597891
0.0012201522 0.0045477143 0.0003128043 0.007250133 0.00082159 0.009313828 0.005325455 0.0011757923
0.005433507 0.0062300963 0.0052735633 0.003461357 0.0028406167 0.0039650747 0.004801744 0.0018869943
0.012918222 0.0025667031 0.009559227 0.007976276 0.0024700947 0.0021100442 0.0014913866 0.0013284115
0.0012521879 0.0076682228 0.0006393458 0.009606783 0.007877954 0.004390903 0.0016618446 0.0016895643
0.0025670137 0.006174771 0.0033100222 0.0011113426 0.0025519417 0.0020117618 0.007165994 0.008949675
0.006956548 0.007338405 0.0010657856 0.0021097243 0.009905203 0.00075419276 0.0015120927 0.0067075617
0.0011493086 0.0030081384 0.00089254725 0.0012251465 0.0023469059 0.011032718 0.0029429465 0.0028983299
00000000: 97bb ff3b 7c1b 303b 879d 983b f731 3e3a
00000010: c00e 503b ed2a fa3b 6a92 3e3a 87fd 063b
00000020: 84ed 9f3a fe04 953b e2ff a339 8692 ed3b
00000030: f95f 573a 0799 183c 2881 ae3b 0b1d 9a3a
00000040: 8f0b b23b d625 cc3b dbcd ac3b efd7 623b
00000050: a429 3a3b 75ed 813b f357 9d3b 0655 f73a
00000060: f3a6 533c 2236 283b 4e9e 1c3c edae 023c
00000070: 50e1 213b ab48 0a3b a17a c33a 181e ae3a
00000080: 7420 a43a b745 fb3b c599 273a c565 1d3c
00000090: 8912 013c 90e1 8f3b 40d2 d93a 5f74 dd3a
000000a0: 583b 283b bc55 ca3b f5ec 583b 78aa 913a
000000b0: 7a3e 273b c3d7 033b b7d0 ea3b a8a1 123c
000000c0: c1f3 e33b 0177 f03b d5b1 8b3a 4d43 0a3b
000000d0: 6f49 223c 05b5 453a 6931 c63a 1bcb db3b
000000e0: 66a4 963a 3024 453b d5f9 693a 1895 a03a
000000f0: 8cce 193b 93c2 343c 73de 403b e8f1 3d3b

gnn_layers.0.gnn.att_i f4 [1, 1, 64]
-0.033254046 0.31163195 -0.026896758 -0.2862162 0.20000109 -0.062124334 -0.12584725 -0.08969293
0.24079296 -0.028203694 0.20325977 0.2785631 -0.1316468 0.067994736 -0.23681358 0.17295575
-0.15364572 0.2347163 0.1517132 0.22376709 -0.16702281 -0.05194993 0.13307749 -0.0073242853
-0.042550996 0.19948807 -0.2522781 -0.08686243 0.0932083 0.117245026 0.32443488 -0.034541033
0.10197034 -0.18307243 -0.010805915 -0.19984771 0.19520715 0.06462415 0.14412649 0.20265383
0.097129494 0.036998894 -0.0058123553 -0.28799838 0.09343728 -0.106841885 -0.19009654 0.18894449
0.02720384 -0.12132298 -0.23376834 -0.24889372 0.08363533 -0.15016781 -0.09480656 -0.23708425
0.25916857 0.049604513 0.22502762 0.29073784 -0.20821658 0.11635106 -0.17061216 0.34020132
00000000: 6535 08bd 398e 9f3e 9756 dcbc ee8a 92be
00000010: 16cd 4c3e 1676 7ebd 1ade 00be edb0 b7bd
00000020: 6e92 763e 6f0b e7bc 5423 503e d39f 8e3e
00000030: 6bce 06be d340 8b3d 427f 72be 501b 313e
00000040: 4e55 1dbe 7859 703e b55a 1b3e 3323 653e
00000050: 0708 2bbe 73c9 54bd 7745 083e 8f00 f0bb
00000060: f449 2ebd 9a46 4c3e 982a 81be eee4 b1bd
00000070: fee3 be3d 291e f03d 541c a63e e67a 0dbd
00000080: d3d5 d03d 5777 3bbe 4b0b 31bc e1a4 4cbe
00000090: 62e4 473e ab59 843d e595 133e 7c84 4f3e
000000a0: d4eb c63d 278c 173d 9275 bebb 8674 93be
000000b0: 0b5c bf3d ebcf dabd aba8 42be aa7a 413e
000000c0: 96da de3c 2f78 f8bd f860 6fbe ffdd 7ebe
000000d0: 0049 ab3d 97c5 19be f129 c2bd 37c6 72be
000000e0: beb1 843e 1a2e 4b3d a46d 663e 97db 943e
000000f0: ba36 55be 7749 ee3d f4b4 2ebe de2e ae3e

gnn_layers.0.gnn.att_j f4 [1, 1, 64]
0.16390434 -0.3009421 0.08543401 0.10652673 -0.06153369 0.2350925 -0.28549004 -0.12241441
0.28449747 0.31237608 0.13582754 -0.22274785 -0.27009133 -0.24364042 -0.03350351 0.23510996
0.14053506 -0.063403964 0.24866039 0.21213 -0.14916897 -0.121189825 0.007475209 0.05382558
0.01913344 0.085395835 0.22880393 -0.021362849 0.15005583 -0.026848296 0.10598331 0.07509076
-0.113482915 -0.12352188 0.091598645 -0.14283161 0.1939562 -0.17755973 0.18857634 0.09899619
-0.07126746 0.19578612 -0.06479769 0.05217282 0.056815032 0.023562627 0.058548253 0.043957204
-0.077838935 0.1633912 0.08173242 0.10675561 0.18613097 -0.16649361 -0.089080215 0.054971687
0.238729 -0.2895649 -0.18749765 -0.08349331 -0.25543118 -0.18866138 0.24684834 -0.0125107085
00000000: 8ad6 273e 1515 9abe 07f8 ae3d b02a da3d
00000010: c00a 7cbd 17bc 703e c02b 92be 68b4 fabd
00000020: a7a9 913e c2ef 9f3e 6016 0b3e 0318 64be
00000030: 6949 8abe e07c 79be fa3a 09bd aac0 703e
00000040: 6ce8 0f3e f0d9 81bd d4a0 7e3e 9b38 593e
00000050: c0bf 18be 5f32 f8bd 99f2 f43b 3678 5c3d
00000060: bbbd 9c3c 03e4 ae3d 944b 6a3e 2401 afbc
00000070: 3ca8 193e f5f0 dbbc c70d d93d 2fc9 993d
00000080: bb69 e8bd 0af9 fcbd 1298 bb3d 7342 12be
00000090: 749c 463e 38d2 35be 281a 413e 84be ca3d
000000a0: adf4 91bd 287c 483e a7b4 84bd 2bb3 553d
000000b0: e1b6 683d 6906 c13c 4bd0 6f3d 780c 343d
000000c0: 056a 9fbd 0650 273e 5463 a73d afa2 da3d
000000d0: 1e99 3e3e 4d7d 2abe b06f b6bd fe29 613d
000000e0: 6075 743e da41 94be 62ff 3fbe 8afe aabd
000000f0: e0c7 82be 7330 41be d0c5 7c3e b7f9 4cbc

gnn_layers.0.gnn.att_em_i f4 [1, 1, 64]
0.086010486 0.11327562 -0.10599991 -0.14198914 -0.1250674 -0.016265856 0.0033951602 0.21780816
-0.04253255 -0.082427934 0.07538168 -0.22851862 -0.22362089 0.13197696 -0.0054787 -0.026678097
-0.012867885 0.07725222 -0.08645046 -0.03825304 -0.060793214 -0.08694704 0.14645103 -0.14350767
0.12474542 0.14325736 0.03532066 0.069250144 -0.02232191 0.036990285 -0.04039047 0.1326629
-0.04387018 -0.09141969 0.10034136 0.07409144 -0.16386038 -0.12099616 -0.055798844 0.05933711
0.10520354 0.019577093 -0.16996384 0.06884906 -0.17690757 0.19223921 0.033680473 0.040191956
0.20377629 -0.01598999 0.0786377 0.08666988 -0.0297354 -0.2305524 0.22435762 0.13445263
0.048581775 -0.05003201 -0.0040729805 0.06159349 0.012227128 0.030688487 0.16076545 0.13419226
00000000: 4426 b03d 0cfd e73d 7b16 d9bd 9a65 11be
00000010: ab11 00be f93f 85bc 5681 5e3b 1a09 5f3e
00000020: 9c36 2ebd facf a8bd b661 9a3d c900 6abe
00000030: e0fc 64be f824 073e ab86 b3bb 068c dabc
00000040: d2d3 52bc 6936 9e3d f00c b1bd 38af 1cbd
00000050: 4e02 79bd 4a11 b2bd 42f7 153e adf3 12be
00000060: 877a ff3d 0fb2 123e 65ac 103d 05d3 8d3d
00000070: 70dc b6bc 2083 173d 7a70 25bd c9d8 073e
00000080: 38b1 33bd 3f3a bbbd c57f cd3d 41bd 973d
00000090: 04cb 27be d6cc f7bd 548d 64bd 780b 733d
000000a0: f474 d73d 2460 a03c 000b 2ebe bc00 8d3d
000000b0: 4227 35be 5bda 443e 89f4 093d 52a0 243d
000000c0: bbaa 503e 71fd 82bc cd0c a13d fa7f b13d
000000d0: a797 f3bc ee15 6cbe 01be 653e f3ad 093e
000000e0: affd 463d 5dee 4cbd a376 85bb 7549 7c3d
000000f0: 4b54 483c 6c66 fb3c b39f 243e b269 093e

gnn_layers.0.gnn.att_em_j f4 [1, 1, 64]
-0.34439674 -0.28228557 0.34188727 0.19188038 -0.33187655 0.30126685 -0.17805496 -0.27000386
0.23621199 -0.2995617 -0.15765885 -0.28444728 -0.22498743 0.28844965 -0.3129604 0.03336091
0.3330257 0.30363244 0.32550412 -0.30633184 0.29430416 0.23447743 0.1779557 0.24132529
-0.33036134 -0.31852895 0.34348986 0.24676822 0.17369717 -0.2890163 0.13818659 -0.1887275
-0.09001356 0.33894962 0.23068243 0.3227101 -0.2960587 -0.33421025 0.029506134 -0.2995482
-0.3061301 0.3235779 0.28900447 -0.13014682 0.27335086 0.16474526 0.28135598 0.34160778
-0.29087064 -0.31471422 0.26999727 -0.07921302 -0.27549025 -0.1866903 0.30464277 0.3244615
0.13545154 -0.29950365 0.21086405 0.20191096 0.24957596 0.36477482 0.34233972 -0.2960425
00000000: c554 b0be bc87 90be d90b af3e 4a7c 443e
00000010: b9eb a9be a63f 9a3e 0a54 36be f23d 8abe
00000020: 8ee1 713e 2760 99be 5271 21be 13a3 91be
00000030: 1b63 66be acaf 933e 583c a0be 73a5 083d
00000040: 5882 aa3e b675 9b3e 7aa8 a63e 87d7 9cbe
00000050: 09af 963e da1a 703e 053a 363e fa1d 773e
00000060: 1f25 a9be 3a16 a3be e7dd af3e cfb0 7c3e
00000070: acdd 313e f2f9 93be c980 0d3e c841 41be
00000080: 0859 b8bd ce8a ad3e 0438 6c3e 423a a53e
00000090: 0295 97be 9b1d abbe d9b6 f13c 625e 99be
000000a0: 16bd 9cbe 01ac a53e 65f8 933e 3545 05be
000000b0: a5f4 8b3e fbb2 283e e40d 903e 37e7 ae3e
000000c0: ffec 94be 3922 a1be 153d 8a3e 703a a2bd
000000d0: 0f0d 8dbe be2b 3fbe 23fa 9b3e d11f a63e
000000e0: cfb3 0a3e 8b58 99be bfec 573e bfc1 4e3e
000000f0: d790 7f3e c4c3 ba3e 2747 af3e e292 97be

gnn_layers.0.gnn.bias f4 [64]
0.0005963952 -1.5702422e-05 6.272056e-05 0.0016224722 0.0012655427 -0.0010447166 0.0011886343 0.0026145163
0.006842296 0.001325837 0.0021364945 0.0016314165 -0.0003001099 -0.00080486294 -0.00030165768 0.008362793
-0.0047754343 0.000116200434 0.0031057738 -0.0010471777 0.0038822729 -0.0014058417 -0.0004412164 -0.00018787425
0.0017407899 -0.001262808 -0.0011748957 -0.00058882707 0.010291549 -0.0012519449 0.0025612845 0.002340772
0.004055541 -0.00031886413 0.0023867332 0.0050684023 0.00043562063 0.0014527534 0.0019678767 -0.00029411283
0.0036340717 0.0025910842 -0.0009711292 0.004163652 0.0034563323 0.006978442 0.0033949937 0.0005957312
0.0037995847 0.0006862178 -0.00040293002 0.0033820113 -0.0039208042 0.00041670154 0.002537532 0.002819278
0.0027771904 -0.004523099 0.0007125934 0.0024774126 -0.0011090639 0.0013256792 -0.00021822474 -0.00022251162
00000000: 6857 1c3a b2b8 83b7 d888 8338 22a9 d43a
00000010: 91e0 a53a dfee 88ba f3cb 9b3a 4e58 2b3b
00000020: 5735 e03b b5c7 ad3a 6e04 0c3b 41d5 d53a
00000030: 1258 9db9 70fd 52ba cf27 9eb9 1904 093c
00000040: 3f7b 9cbb a2b0 f338 3d8a 4b3b 7441 89ba
00000050: bb6d 7e3b 3844 b8ba 1053 e7b9 1c00 45b9
00000060: 372b e43a ce84 a5ba f5fe 99ba 845b 1aba
00000070: e39d 283c 4d18 a4ba 39db 273b a367 193b
00000080: 58e4 843b 382d a7b9 bd6a 1c3b d714 a63b
00000090: 0364 e439 516a be3a 7ef7 003b 2833 9ab9
000000a0: 9b29 6e3b 2ecf 293b 6193 7eba 3f6f 883b
000000b0: a283 623b 6aab e43b 8b7e 5e3b d82a 1c3a
000000c0: 7402 793b 4ce3 333a 5a40 d3b9 bca4 5d3b
000000d0: 177a 80bb bc78 da39 b94c 263b a3c3 383b
000000e0: 8601 363b 8136 94bb 55cd 3a3a 165c 223b
000000f0: 025e 91ba 6ac2 ad3a 42d3 64b9 0252 69b9

gnn_layers.0.gnn.lin.weight f4 [64, 15]
0.14646606 -0.040943876 0.268298 0.010131937 -0.10804072 0.101902485 0.15985216 0.011017969
0.22831866 -0.16942334 0.11399815 0.14333402 0.12769407 -0.025494441 0.14983389 -0.24337365
-0.23225954 0.021393478 -0.051903967 0.17938167 0.17191976 0.1595182 -0.1442867 -0.19138029
-0.2741259 0.08890732 -0.23073113 -0.29331434 -0.13531533 -0.30232456 -0.07961318 -0.16824724
-0.1816181 0.20209955 -0.050299257 0.23457223 -0.0143568795 -0.08232042 -0.11977733 -0.20373847
-0.24001211 0.13472109 -0.13634989 -0.3585287 0.18947871 0.029692125 -0.16601829 -0.26254883
-0.20185798 -0.2146373 0.27698845 0.22067487 0.040134486 -0.26828644 -0.04463201 -0.2377239
0.06827697 -0.05158773 -0.05769967 -0.018815266 0.11095044 0.12598036 0.05808791 -0.049885605
-0.047816757 -0.032397714 -0.23722745 0.25419778 -0.11663384 0.14758837 -0.16870943 -0.0026132567
0.08715628 -0.24544798 0.11475739 -0.189622 0.035890754 -0.07442039 0.14545336 0.28930527
0.08542888 0.008225768 -0.123028085 0.096625336 -0.11272964 0.12918817 -0.12182833 0.18581274
0.19350539 0.23265235 -0.023400092 0.119162284 -0.268096 0.2189925 -0.08074773 0.10055072
-0.049126063 -0.0937022 -0.13521597 0.17810823 -0.15047717 -0.06985166 0.13230637 0.023264162
-0.21986674 -0.3140486 -0.16706452 0.21134777 -0.22367057 0.12549992 0.17440028 -0.12430113
-0.137714 -0.22531624 0.02432884 -0.055619396 -0.011075051 0.09969332 0.09304911 -0.09975049
0.017663928 0.054845728 0.016920421 0.027232993 -0.13474143 0.21911752 -0.038182918 -0.0523185
-0.24317853 -0.19975534 0.014319051 -0.027002618 -0.14614344 0.14147134 -0.0522912 0.1242446
0.2358496 -0.13339186 -0.14454378 -0.033212304 -0.005383286 -0.13908544 -0.06610271 -0.012744822
0.13634008 0.25762597 0.19810466 0.011200481 -0.048151877 0.121440284 0.0235288 -0.032410875
0.13227731 -0.23747446 -0.19324231 0.041240774 -0.08812099 -0.16431227 -0.24332951 0.2123734
0.0010072942 -0.12313525 -0.1607929 0.040785503 -0.2630483 0.0053491513 -0.010641701 0.11468794
0.095985934 -0.18960218 0.10932373 0.1989304 0.012903899 0.1494149 -0.11628106 0.04522938
0.090562195 -0.13690814 0.17768243 -0.29701513 -0.13998069 -0.16235821 -0.19472472 -0.15531033
-0.2770793 0.02960719 -0.045705732 -0.21905996 -0.019862026 -0.055755172 0.112496994 -0.23637493
-0.06108072 0.06524501 0.1444413 -0.015756747 0.05442375 0.27669698 -0.09833244 0.15183909
0.2025461 -0.25486007 0.06749467 0.16703539 -0.04852402 0.15878396 0.02485103 0.22203688
0.03880818 -0.22585826 0.22421563 0.09973049 0.19281194 0.08824938 0.15159869 0.18623811
0.08427863 -0.03090564 0.024819233 -0.17471857 0.04005142 -0.107042424 0.049251825 -0.20476694
0.23455827 -0.2724183 0.09495144 0.17219399 -0.2668035 0.2410751 -0.2106846 -0.065485656
0.13219053 -0.0928029 0.23641118 -0.13410406 -0.043856557 -0.19537261 -0.14304873 0.24794938
0.23017563 0.037315115 -0.0074765966 -0.21189325 0.22963473 -0.011938203 -0.0797664 -0.18762444
0.20778607 0.1581651 0.19340852 0.024343584 -0.14991193 0.13083695 0.1014454 -0.0131585775
00000000: 33fb 153e c4b4 27bd 5b5e 893e 6d00 263c
00000010: 7444 ddbd 40b2 d03d 49b0 233e b684 343c
00000020: 5ecc 693e 507d 2dbe dd77 e93d 27c6 123e
00000030: 3cc2 023e b8d9 d0bc 0e6e 193e f136 79be
00000040: 72d5 6dbe 6041 af3c 4199 54bd d4af 373e
00000050: bc0b 303e bd58 233e e5bf 13be 32f9 43be
00000060: 3b5a 8cbe 0a15 b63d c844 6cbe 4c2d 96be
00000070: 1a90 0abe 49ca 9abe 3c0c a3bd 0149 2cbe
00000080: 18fa 39be 2ff3 4e3e 9806 4ebd b433 703e
00000090: 1e39 6bbc 9c97 a8bd d14d f5bd d1a0 50be
000000a0: bcc5 75be 53f4 093e 4e9f 0bbe 1391 b7be
000000b0: b506 423e e63c f33c b300 2abe cd6c 86be
000000c0: dcb3 4ebe e1c9 5bbe 6ed1 8d3e 98f8 613e
000000d0: 0f64 243d d75c 89be 0ed0 36bd e56d 73be
000000e0: ccd4 8b3d a84d 53bd 7d56 6cbd 7922 9abc
000000f0: fc39 e33d ff00 013e 97ed 6d3d d954 4cbd
00000100: 81db 43bd 77b3 04bd c1eb 72be 3626 823e
00000110: b9dd eebd 6821 173e 2ac2 2cbe 2c43 2bbb
00000120: fe7e b23d b756 7bbe ec05 eb3d 452c 42be
00000130: 2f02 133d b869 98bd baf1 143e d21f 943e
00000140: 56f5 ae3d 5fc5 063c 26f6 fbbd 81e3 c53d
00000150: ccde e6bd e749 043e 2281 f9bd b245 3e3e
00000160: 4726 463e 6b3c 6e3e 8db1 bfbc 5b0b f43d
00000170: e143 89be 923f 603e 115f a5bd 89ed cd3d
00000180: 6938 49bd f0e6 bfbd 0e76 0abe 0162 363e
00000190: b016 1abe 630e 8fbd 527b 073e 7c94 be3c
000001a0: bf24 61be faca a0be f612 2bbe 8d6b 583e
000001b0: e609 65be 0d83 003e fd95 323e 9791 febd
000001c0: e604 0dbe 4db9 66be 474d c73c 2ad1 63bd
000001d0: 2174 35bc 032c cc3d 8890 be3d fc49 ccbd
000001e0: f1b3 903c eaa5 603d b29c 8a3c ba17 df3c
000001f0: a8f9 09be 5860 603e b165 1cbd ec4b 56bd
00000200: cb03 79be aa8c 4cbe 749a 6a3c 9834 ddbc
00000210: a0a6 15be dddd 103e 4c2f 56bd f473 fe3d
00000220: 8f82 713e e097 08be 4903 14be a009 08bd
00000230: 4766 b0bb 6a6c 0ebe dc60 87bd a8cf 50bc
00000240: bc9c 0b3e 8de7 833e f3db 4a3e 3982 373c
00000250: e73a 45bd afb5 f83d 78bf c03c 44c1 04bd
00000260: b473 073e 812c 73be 50e1 45be 16ec 283d
00000270: c778 b4bd 7a41 28be 5f2b 79be 6a78 593e
00000280: 2f07 843a 552e fcbd e5a6 24be b30e 273d
00000290: 44ae 86be ef47 af3b 875a 2ebc 83e1 ea3d
000002a0: 4694 c43d 1327 42be 1fe5 df3d 69b4 4b3e
000002b0: e06a 533c 3800 193e c424 eebd 7142 393d
000002c0: ac78 b93d a631 0cbe 62f2 353e 5e12 98be
000002d0: 1957 0fbe 3b41 26be eb65 47be ac09 1fbe
000002e0: 57dd 8dbe c78a f23c ef35 3bbd 4151 60be
000002f0: b0b5 a2bc 895f 64bd d364 e63d 450c 72be
00000300: c72f 7abd 2d9f 853d 6ce8 133e 4b14 81bc
00000310: 70eb 5e3d 3aab 8d3e 8562 c9bd b57b 1b3e
00000320: 3f68 4f3e 057d 82be a53a 8a3d 530b 2b3e
00000330: 1fc1 46bd 4398 223e 6394 cb3c a35d 633e
00000340: 53f5 1e3d 6347 67be c898 653e 803f cc3d
00000350: 7e70 453e 17bc b43d b03c 1b3e 34b5 3e3e
00000360: 469a ac3d d32d fdbc b451 cb3c 6de9 32be
00000370: f50c 243d 0f39 dbbd 48bc 493d 6dae 51be
00000380: 0b30 703e 697a 8bbe e775 c23d 9f53 303e
00000390: 789a 88be 64dc 763e b4bd 57be 581d 86bd
000003a0: f45c 073e 720f bebd c615 723e 9352 09be
000003b0: efa2 33bd c20f 48be 5e7b 12be 71e6 7d3e
000003c0: 29b3 6b3e bcd7 183d 3dfe f4bb 8bfa 58be
000003d0: 5e25 6b3e 7498 43bc 915c a3bd 9f20 40be
000003e0: dfc5 543e 08f6 213e e20c 463e 326c c73c
000003f0: 8382 19be 1ffa 053e 9bc2 cf3d 1397 57bc

gnn_layers.0.bn.weight f4 [64]
0.88394123 0.72970736 0.79379976 0.8469543 0.8497804 0.8340117 0.7169553 0.7510334
0.76298505 0.8477906 0.74097717 0.88368094 0.9078986 0.96331406 0.8334393 0.7027872
0.81207037 0.9026655 0.772978 0.81853443 0.8071098 0.8585822 0.9068547 0.77933645
0.9219228 0.8311331 0.8080738 0.8690191 0.92275745 0.7418176 0.68698317 0.7648998
0.7883639 0.82325375 0.7856653 0.8269838 0.82777494 0.8022359 0.7648669 0.7932461
0.7859492 0.8752932 0.71645254 0.7775816 0.83250356 0.73424184 0.81526667 0.92133
0.8487564 0.8128703 0.9157318 0.7935178 0.8604599 0.7854557 0.71751666 0.905247
0.814052 0.72264755 0.819133 0.6934987 0.8740097 0.6498704 0.81881225 0.7823633
00000000: f949 623f 1ace 3a3f 7636 4b3f ffd1 583f
00000010: 358b 593f ca81 553f 628a 373f ba43 403f
00000020: fd52 433f ce08 593f aeb0 3d3f ea38 623f
00000030: 0b6c 683f c09b 763f 475c 553f dde9 333f
00000040: d8e3 4f3f 1615 673f e3e1 453f 798b 513f
00000050: bf9e 4e3f 0bcc 5b3f a127 683f 9882 473f
00000060: 2203 6c3f 24c5 543f eddd 4e3f 0978 5e3f
00000070: d539 6c3f c2e7 3d3f 21de 2f3f 79d0 433f
00000080: 37d2 493f c2c0 523f 5c21 493f 36b5 533f
00000090: 0fe9 533f 555f 4d3f 51ce 433f 2d12 4b3f
000000a0: f733 493f 3713 603f 6f69 373f 960f 473f
000000b0: f41e 553f 46f7 3b3f 51b5 503f 48dc 6b3f
000000c0: 1948 593f 4518 503f 666d 6a3f fc23 4b3f
000000d0: 1a47 5c3f a013 493f 2caf 373f 44be 673f
000000e0: b665 503f 6eff 383f b3b2 513f 2189 313f
000000f0: 1abf 5f3f e85d 263f ae9d 513f f648 483f

gnn_layers.0.bn.bias f4 [64]
0.067131 0.17679997 0.16050792 0.12764032 0.06359357 0.099094346 0.19509104 0.14905119
0.12797575 0.08130086 0.2634001 0.06070969 0.05742357 -0.03440905 -0.07859781 0.16118918
-0.09090018 -0.050368898 0.11666264 0.16136406 0.16139467 -0.0693167 0.047987968 0.16124472
0.049579628 -0.0880262 0.09158244 0.06903141 0.048922338 -0.11722537 0.1496564 0.15077777
0.1542922 -0.08018677 0.16820762 0.088261455 0.09092376 0.10807566 0.13672349 0.1694726
0.110354304 0.06869067 -0.12896766 0.13847685 0.17845795 0.20804538 0.09733416 -0.048612155
0.09266508 0.08066979 0.068235695 0.19862834 0.05717169 0.13166027 0.19991109 -0.05693058
0.12700328 -0.11920731 0.11270901 0.1325486 0.14436084 0.22887601 0.070263594 0.15544827
00000000: fa7b 893d 0d0b 353e 305c 243e 25b4 023e
00000010: 583d 823d faf1 ca3d f2c5 473e e0a0 183e
00000020: 130c 033e 1181 a63d 61dc 863e b9aa 783d
00000030: fa34 6b3d 81f0 0cbd e3f7 a0bd c70e 253e
00000040: e029 babd 9e4f 4ebd d2ec ee3d 9f3c 253e
00000050: a544 253e eaf5 8dbd 088f 443d 561d 253e
00000060: 0214 4b3d 1547 b4bd 938f bb3d 5760 8d3d
00000070: ca62 483d db13 f0bd 873f 193e 7d65 1a3e
00000080: c6fe 1d3e f638 a4bd 9e3e 2c3e 6cc2 b43d
00000090: 3c36 ba3d c656 dd3d 3e01 0c3e 3a8a 2d3e
000000a0: 7001 e23d b2ad 8c3d 1910 04be e0cc 0d3e
000000b0: aebd 363e d909 553e 2257 c73d 8a1d 47bd
000000c0: 31c7 bd3d 3436 a53d 28bf 8b3d 3a65 4b3e
000000d0: dd2c 6a3d f3d1 063e 7eb5 4c3e 0a30 69bd
000000e0: 260d 023e f622 f4bd fbd3 e63d d2ba 073e
000000f0: 54d3 133e 795e 6a3e 5ce6 8f3d d52d 1f3e

gnn_layers.0.bn.running_mean f4 [64]
0.87432086 -1.161557 -0.6786186 -0.68611413 -0.0013180935 0.6119954 -0.2454237 -0.48777795
-0.30671293 0.39634156 -0.8250392 0.19165108 -0.94686234 0.5592745 0.66844076 -0.22305915
0.5195239 0.037448682 0.41966233 -0.4264758 -0.47311705 0.5346522 0.5211232 -0.8220089
-0.045267947 0.43484402 0.85807467 0.08808604 0.005466338 0.3079113 -0.31646135 -0.6486721
-0.571314 0.53804916 -0.93629116 0.054959837 0.4880931 0.003764222 -0.79750067 -0.94245327
-0.27520907 0.7095346 0.12942848 -0.7681068 -0.22688057 -0.56838906 0.49466982 0.33425736
-0.023616571 0.7273783 -0.361725 -0.9505894 0.18394421 -1.0901066 -0.4124461 0.08807213
-1.00138 0.16971797 -0.9493809 -0.6892901 -0.7614745 -0.18936135 0.009595635 -0.7261362
00000000: 7ed3 5f3f e6ad 94bf f3b9 2dbf 2da5 2fbf
00000010: e1c3 acba bbab 1c3f 5a50 7bbe 08be f9be
00000020: 7a09 9dbe 48ed ca3e c535 53bf 2e40 443e
00000030: 9265 72bf 9d2c 0f3f ef1e 2b3f 9e69 64be
00000040: 85ff 043f ca63 193d fbdd d63e 095b dabe
00000050: 663c f2be f7de 083f 5468 053f 2d6f 52bf
00000060: e26a 39bd e0a3 de3e c8aa 5b3f 7466 b43d
00000070: f71e b33b 8da6 9d3e 3907 a2be 600f 26bf
00000080: a241 12bf 97bd 093f c7b0 6fbf 911d 613d
00000090: 57e7 f93e 2ab1 763b 0129 4cbf 9e44 71bf
000000a0: 34e8 8cbe 0fa4 353f e688 043e a6a2 44bf
000000b0: 6153 68be f281 11bf 5d45 fd3e c823 ab3e
000000c0: 8a77 c1bc 7735 3a3f 0534 b9be d459 73bf
000000d0: df5b 3c3e 9d88 8bbf 232c d3be 295f b43d
000000e0: 382d 80bf 8cca 2d3e a00a 73bf 5175 30bf
000000f0: feef 42bf f1e7 41be 0337 1d3c 10e4 39bf

gnn_layers.0.bn.running_var f4 [64]
0.14767614 0.2604881 0.08908324 0.090838924 0.0001347259 0.07378426 0.011894107 0.0459319
0.019390712 0.030268813 0.13304676 0.0070427665 0.17288846 0.06076366 0.08622305 0.010221445
0.053101655 0.0005971891 0.034076363 0.03537922 0.045806993 0.0559114 0.05202185 0.13067585
0.00062166096 0.03803858 0.14341223 0.0017260057 8.482379e-05 0.01914163 0.020523723 0.081814654
0.06392121 0.056447346 0.17089775 0.0006452439 0.04576258 0.00016917459 0.12399656 0.17073122
0.015606974 0.09812812 0.0035981252 0.11493435 0.010304461 0.063529134 0.047123376 0.02151626
0.00043177028 0.10297377 0.025136007 0.17881684 0.007008007 0.22990055 0.033208262 0.002027321
0.19554146 0.0062542097 0.17379393 0.09414215 0.113062315 0.008160888 0.000476941 0.102305196
00000000: 6a38 173e b25e 853e 4671 b63d c209 ba3d
00000010: 3545 0d39 341c 973d 80df 423c 1723 3c3d
00000020: 45d9 9e3c 4df6 f73c 693d 083e 02c7 e63b
00000030: ac09 313e 51e3 783d b695 b03d d977 273c
00000040: 1f81 593d af8c 1c3a a893 0b3d cde9 103d
00000050: 1da0 3b3d 5a03 653d dd14 553d e4cf 053e
00000060: f6f6 223a 58ce 1b3d a8da 123e 243b e23a
00000070: 6de3 b138 e8ce 9c3c 5e21 a83c 718e a73d
00000080: 20e9 823d 5535 673d d2ff 2e3e 9625 293a
00000090: 8b71 3b3d 7564 3139 e9f1 fd3d 2ad4 2e3e
000000a0: 65b4 7f3c 65f7 c83d 86ce 6b3b b362 eb3d
000000b0: 0bd4 283c 901b 823d 7104 413d de42 b03c
000000c0: 3a5f e239 e9e3 d23d 07ea cd3c c31b 373e
000000d0: 6ca3 e53b 0d6b 6b3e 6305 083d cddc 043b
000000e0: 053c 483e 1df0 cc3b 09f7 313e 99cd c03d
000000f0: 378d e73d 3fb5 053c f00d fa39 6385 d13d

out_layer.mlp.0.weight f4 [1, 64]
-0.019625578 0.0508592 0.051778506 -0.106356606 -0.03856455 0.11997384 -0.09785002 0.06685836
-0.07596922 -0.010564591 0.057009205 -0.0043804008 0.041753624 0.05140673 0.06446322 -0.097737506
0.036927957 0.044323694 -0.03640407 0.043868303 0.061368614 0.03185924 -0.048812103 0.07518711
0.033640243 0.055398643 -0.023813969 -0.038196415 -0.03181915 0.056106605 -0.07868555 0.051363245
0.05575623 0.03350776 -0.117170475 -0.016430143 -0.01766768 -0.015261388 0.09155871 0.08437502
-0.07771214 -0.0264511 0.03373604 -0.13289902 0.058254134 0.09926257 -0.017705508 0.037525043
-0.0050676567 -0.020547947 -0.07452682 0.077107325 -0.020543369 0.051326267 0.04292576 0.075246006
-0.081525356 0.07026682 -0.100265644 -0.068270855 0.092913166 0.03745029 -0.006897538 0.046535395
00000000: d2c5 a0bc bd51 503d b315 543d 7ed1 d9bd
00000010: ddf5 1dbd d8b4 f53d 9765 c8bd 09ed 883d
00000020: c095 9bbd 1b17 2dbc 7c82 693d 7789 8fbb
00000030: d905 2b3d dd8f 523d 4b05 843d 9a2a c8bd
00000040: c541 173d c38c 353d 6f1c 15bd 40af 333d
00000050: a85d 7b3d d67e 023d 33ef 47bd b3fb 993d
00000060: 5aca 093d b0e9 623d 8315 c3bc d873 1cbd
00000070: cc54 02bd 0ad0 653d e425 a1bd 4462 523d
00000080: a560 643d 6f3f 093d 13f7 efbd 8298 86bc
00000090: cfbb 90bc e70a 7abc 2283 bb3d cfcc ac3d
000000a0: 8b27 9fbd faaf d8bc cd2e 0a3d ae16 08be
000000b0: e39b 6e3d 2d4a cb3d 240b 91bc dcb3 193d
000000c0: 960e a6bb 2b54 a8bc 84a1 98bd 72ea 9d3d
000000d0: 914a a8bc 7e3b 523d ecd2 2f3d 941a 9a3d
000000e0: c4f6 a6bd 0de8 8f3d 1358 cdbd 97d1 8bbd
000000f0: 4249 be3d 7a65 193d be04 e2bb e69b 3e3d
