pretrained/best_12|23-21:57:24.pt (torch, 20204 bytes, 16 tensors)

embedding.weight f4 [27, 64]
0	0xbe14e3af	-0.1453998
1	0x3c67b641	0.014142574
2	0x3d2dd42f	0.042438682
3	0x3d845ce7	0.06463032
4	0x3d5a6942	0.053323038
5	0xbdff02f1	-0.12451733
6	0x3dffcec7	0.124906115
7	0xb98a692a	-0.00026399764
8	0x3d8af0e8	0.067842305
9	0x3cce9c9f	0.025221167
10	0xbcdf8b90	-0.027288228
11	0x3d7a9a93	0.06118257
12	0x3d8ad3de	0.06778692
13	0x3d27e39b	0.040988546
14	0x3cf01607	0.029307378
15	0x3d929f38	0.07159275
16	0x3bec5159	0.007211846
17	0x3d044d16	0.032300077
18	0x3d645af9	0.05575082
19	0x3d858a41	0.065205105
20	0xbda804c6	-0.082040355
21	0xbe05146d	-0.12996073
22	0x3d1ed486	0.038776897
23	0x3cb38551	0.021914156
24	0x3d49b788	0.049247295
25	0x3cd61a9f	0.02613574
26	0x3d84546e	0.06461416
27	0x3e045fd6	0.12927184
28	0xbd871d43	-0.06597378
29	0x3d2f72f8	0.042834252
30	0x3da0415f	0.078249685
31	0x3d608e06	0.054822944
32	0x3d693d37	0.056943145
33	0xbd87c18d	-0.06628714
34	0x3dc7a475	0.097481646
35	0x3e06eafd	0.13175578
36	0xbde931e9	-0.11386473
37	0x3dbfc1eb	0.09363159
38	0xbd8bf668	-0.06834108
39	0xbced9e1c	-0.029006056
40	0x3d181ab9	0.03713486
41	0x3da49c7d	0.0803766
42	0xba39a67c	-0.0007081998
43	0xbd742672	-0.059606977
44	0xbbbd91fb	-0.0057852245
45	0x3d2b2410	0.04178244
46	0xbd19f17f	-0.037583824
47	0x3d91d3fb	0.0712051
48	0x3e052884	0.13003737
49	0x3d5835b6	0.052785598
50	0x3d18721a	0.03721819
51	0x3c00a8b9	0.007852727
52	0xbdc96fae	-0.09835754
53	0xbd07032d	-0.032962013
54	0xbcf2027e	-0.029542204
55	0xbdb39a85	-0.08769707
56	0x3dad6e5e	0.084683165
57	0xbd03d8c9	-0.032189164
58	0xbd78848c	-0.06067328
59	0x3e057f79	0.13036908
60	0x3b81a1fd	0.003956078
61	0x3d9f14de	0.07767652
62	0x3e0b1d9d	0.13585515
63	0x3cecb1f7	0.028893454
64	0x3d03c206	0.032167457
65	0x3e29fa0d	0.16599293
66	0xbe87b0fb	-0.26502213
67	0xbde238e2	-0.11046006
68	0x3b5e6573	0.003393498
69	0xbe87d3f7	-0.26528904
70	0xbd2a9401	-0.041645054
71	0x3dcc30ad	0.09970222
72	0xbe1eaac3	-0.15494828
73	0x3cad5581	0.021158936
74	0x3cdd823d	0.027039642
75	0x3ace7b54	0.0015753307
76	0xbcd03a5a	-0.02541845
77	0xbe73d625	-0.23812158
78	0x3def775e	0.11692689
79	0xbe1e2682	-0.15444377
80	0xbe98a45e	-0.29812902
81	0x3db0f722	0.08640887
82	0xbe9eda4e	-0.31025928
83	0x3e1b47ee	0.15164158
84	0xbe1d32ec	-0.15351456
85	0x3cfc03fc	0.030763619
86	0xbbb731fc	-0.0055906754
87	0xbe4c91e7	-0.19977532
88	0x3e6bbe63	0.23021846
89	0x3e1d0fd1	0.15338065
90	0xbeb80836	-0.35943764
91	0xbb144c3a	-0.0022628442
92	0xbcd6efcf	-0.026237397
93	0x3e08ce2a	0.13359895
94	0xbe3cd50f	-0.1844065
95	0x3da0d5d9	0.07853288
96	0x3dae95a8	0.085246384
97	0xbeb95d0a	-0.36203796
98	0xbe01a19d	-0.12659307
99	0xbec91cb7	-0.3927972
100	0x3c91ccef	0.017797915
101	0x3e075c96	0.13218912
102	0xbe09f32c	-0.13471669
103	0x3d8e4248	0.06946236
104	0xbc9ffc55	-0.019529501
105	0xbe82fe43	-0.2558461
106	0xbd819166	-0.06326561
107	0xbd8938df	-0.067003004
108	0xbe7796a6	-0.24178562
109	0x3d2ff52d	0.042958427
110	0xbd307295	-0.043078024
111	0xbe983605	-0.29728714
112	0x3e08eefd	0.13372417
113	0x3db19c1d	0.08672354
114	0xbe1539ef	-0.14572881
115	0x3d888562	0.06666066
116	0x3d096ae7	0.033549216
117	0xbdaae6dc	-0.08344814
118	0xbddd84f5	-0.10816375
119	0xbe8b6f6e	-0.27233452
120	0xbc9db58d	-0.01925161
121	0x3daab85e	0.083359465
122	0xbd0347e7	-0.032050993
123	0xbe0180da	-0.12646809
124	0x3d407bc2	0.046993025
125	0xbe7614e7	-0.24031411
126	0xbea99a71	-0.33125642
127	0x3e385a6d	0.18003245
128	0x3da34679	0.07972426
129	0x3df84215	0.12121979
130	0xbd2afce3	-0.041745078
131	0xbdebbc6d	-0.11510549
132	0xbdfd051b	-0.123544894
133	0xbbfcce9e	-0.0077150604
134	0xbdbef38f	-0.09323799
135	0x3d8ba116	0.06817834
136	0xbdbbaa53	-0.09163346
137	0x3d22e5ef	0.039770063
138	0xbdfa6e54	-0.12228075
139	0xbd4a977a	-0.049460866
140	0x3dcbc44b	0.09949549
141	0xbe1e8214	-0.15479308
142	0x3d0a5fa7	0.033782627
143	0xbe0e10c7	-0.13873588
144	0x3d0bbaac	0.03411357
145	0xbdde06aa	-0.10841115
146	0xbdbe9e22	-0.09307505
147	0xbd46d690	-0.048544466
148	0xbcb4c285	-0.02206541
149	0x3d22e9fb	0.039773922
150	0xbdf4ff4b	-0.11962756
151	0x3cbdb99b	0.023159793
152	0x3d3d9adc	0.046290264
153	0x3d0cb75f	0.034354564
154	0x3e03e3e7	0.12879907
155	0x3dd38d20	0.10329652
156	0xbcbb4cb1	-0.022863718
157	0x3cb1fca8	0.021726921
158	0x3deb535b	0.11490508
159	0x3d2c7ff4	0.042114213
160	0xbca22f4b	-0.019797942
161	0x3d967fc4	0.07348588
162	0xbdcdb8ae	-0.100449905
163	0x3dba279b	0.090895854
164	0x3dae386a	0.08506854
165	0xbe1821df	-0.14856671
166	0xbdab7643	-0.08372166
167	0x3e84ce59	0.2593868
168	0x3e0e7d09	0.13914885
169	0x3d27233a	0.04080508
170	0x3cee20fe	0.029068466
171	0x3d6c567e	0.057699673
172	0x3d18f728	0.03734508
173	0xbdecbc71	-0.1155938
174	0x3dd8d454	0.105873734
175	0x3d01f897	0.031731214
176	0x3db54ce8	0.08852559
177	0x3dc2e592	0.09516443
178	0xbe1ec536	-0.15504918
179	0xbd81a380	-0.06330013
180	0x3d4a48ee	0.049385957
181	0x3d2e4f45	0.042556066
182	0xbd6ba933	-0.057534408
183	0xba9a1504	-0.0011755531
184	0x3d19aaf3	0.037516546
185	0xbe0f6b93	-0.1400588
186	0x3d1428b1	0.03617162
187	0xbc64b148	-0.013958283
188	0xbd958b93	-0.07302012
189	0xbdcc91a6	-0.09988718
190	0x3d8bee65	0.068325795
191	0xbdc9bb34	-0.09850159
192	0xbe1e3c63	-0.15452723
193	0x3dd94c26	0.10610227
194	0xbddfbdc5	-0.109248675
195	0xbd65c27f	-0.05609369
196	0x3e042254	0.1290372
197	0xbe0ceea1	-0.13762905
198	0xbdaa2d8f	-0.08309471
199	0xbdf3dd35	-0.11907426
200	0xbc98491b	-0.018589547
201	0xbdbfb219	-0.09360141
202	0xbcb04d47	-0.021521224
203	0x3dae1af1	0.085012324
204	0x3bcc6d6c	0.00623863
205	0x3c296c18	0.010340713
206	0x3cae1ac9	0.021253007
207	0xbdccaa57	-0.09993427
208	0xbdd09444	-0.101845294
209	0x3b95daaf	0.0045731883
210	0xbda8cb87	-0.08241945
211	0x3da74335	0.081671156
212	0xbd92cf40	-0.07168436
213	0x3d38ccd8	0.04511723
214	0xbdb109eb	-0.0864447
215	0xbc821a30	-0.015881628
216	0xbd362ddb	-0.044477325
217	0xbd13153c	-0.035908923
218	0x3db5339f	0.088477366
219	0xbe0a25de	-0.13491008
220	0x3dccb18f	0.09994804
221	0x3c948c4e	0.018133309
222	0x3c011349	0.007878133
223	0xbc7eb00e	-0.015544904
224	0x3dbfe25a	0.09369345
225	0xbcc4bd21	-0.024015965
226	0xbdb19af9	-0.08672137
227	0xbce168a2	-0.027515713
228	0xbde72c45	-0.112877406
229	0xbe10ae0d	-0.14128895
230	0x3d7e2306	0.06204512
231	0x3d393386	0.045215152
232	0xbdee4ee7	-0.11636143
233	0x3c09c482	0.0084086675
234	0xbd2bd6e0	-0.041952968
235	0xbd2b1a69	-0.041773234
236	0x3d85c054	0.06530824
237	0xbe516f92	-0.20452717
238	0x3e0bf60e	0.13668081
239	0xbe1033be	-0.14082238
240	0xbda930e0	-0.08261275
241	0xbdd6ebef	-0.104942195
242	0x3d8fb16e	0.07016264
243	0x3dc1f4d3	0.09470525
244	0x3e2f9480	0.17146492
245	0x3ddc457e	0.10755442
246	0x3d2aa1d9	0.041658256
247	0xbde75f32	-0.11297454
248	0xbe09dce0	-0.13463163
249	0x3c545ab8	0.012961082
250	0xbe11a32d	-0.14222403
251	0x3c6f0d21	0.0145905325
252	0x3d955253	0.07291093
253	0xbccec341	-0.025239589
254	0xbe3115d9	-0.1729349
255	0x3dc5c4e5	0.09656695

bn_outlayer_in.weight f4 [64]
0	0x3f71c433	0.9444
1	0x3f87b678	1.060256
2	0x3f8dfdac	1.109304
3	0x3f8ad908	1.0847483
4	0x3f726acb	0.94694203
5	0x3f851794	1.039782
6	0x3f8f99ef	1.1218852
7	0x3f740c89	0.9533163
8	0x3f7abf0b	0.9794776
9	0x3f75abfd	0.9596556
10	0x3f93291e	1.1496923
11	0x3f72c5fc	0.9483335
12	0x3f751710	0.95738316
13	0x3f75609b	0.95850533
14	0x3f739d65	0.9516204
15	0x3f825dfc	1.0184932
16	0x3f73dd1a	0.9525925
17	0x3f75a5fe	0.9595641
18	0x3f7cc2d3	0.9873478
19	0x3f83f2a1	1.030842
20	0x3f7ffb10	0.99992466
21	0x3f733761	0.95006377
22	0x3f700739	0.9376102
23	0x3f75823f	0.95901865
24	0x3f7f9590	0.9983759
25	0x3f7e6261	0.99368864
26	0x3f745759	0.9544578
27	0x3f73fd97	0.9530882
28	0x3f75bb50	0.9598894
29	0x3f7a36fe	0.9774016
30	0x3f81e715	1.0148646
31	0x3f7b5c54	0.98187757
32	0x3f821e2f	1.0165461
33	0x3f7980bd	0.97462064
34	0x3f8e9ce6	1.1141632
35	0x3f7b7524	0.9822562
36	0x3f78cc5e	0.9718684
37	0x3f75cfc0	0.96020126
38	0x3f7a7256	0.9783071
39	0x3f952b57	1.1653851
40	0x3f836d14	1.0267663
41	0x3f6f19b5	0.933986
42	0x3f844e20	1.0336342
43	0x3f811ccb	1.0086912
44	0x3f8be978	1.0930624
45	0x3f826839	1.0188056
46	0x3f763a9a	0.9618317
47	0x3f789da6	0.9711555
48	0x3f78f5a6	0.9724983
49	0x3f718ab7	0.9435229
50	0x3f74d8dd	0.9564341
51	0x3f81a676	1.0128925
52	0x3f723890	0.9461756
53	0x3f7d740d	0.99005204
54	0x3f829cc1	1.0204087
55	0x3f809c88	1.004777
56	0x3f7c2be3	0.98504466
57	0x3f75a66d	0.9595707
58	0x3f79e5f3	0.976165
59	0x3f78a9a9	0.9713388
60	0x3f822057	1.0166119
61	0x3f84b496	1.036761
62	0x3f75db47	0.96037716
63	0x3f8395dd	1.028011

bn_outlayer_in.bias f4 [64]
0	0xbd53c3e0	-0.051700473
1	0x3d06540d	0.032795
2	0xb981b2e1	-0.00024738073
3	0x3d319d69	0.04336301
4	0xb9c1ff1e	-0.00037001906
5	0x3de28dfb	0.11062237
6	0x3d85ec14	0.06539169
7	0xbd3fa859	-0.04679141
8	0x3d42544e	0.04744368
9	0xbc7c17ee	-0.015386565
10	0x3e15d0e9	0.14630474
11	0xbccd3583	-0.02504993
12	0xbd4257f8	-0.047447175
13	0x3d483bec	0.04888527
14	0xbd978547	-0.073984675
15	0x3d6cb3f7	0.057788815
16	0xbdac7898	-0.08421439
17	0xbd708248	-0.058717996
18	0xbc8dc510	-0.01730588
19	0xbcc7833c	-0.02435457
20	0xbc2dcb3d	-0.010607538
21	0xbd82d35a	-0.06387968
22	0xbdd40c65	-0.103539266
23	0xbd619f69	-0.055083666
24	0x3d4b3b68	0.0496172
25	0xbd95ea4f	-0.073200814
26	0xbd5c2484	-0.05374576
27	0xbd62d290	-0.05537659
28	0xbb99c25f	-0.0046923603
29	0xbdc08dc6	-0.09402041
30	0x3d84234e	0.06452046
31	0xbd05e535	-0.032689292
32	0x3cd7fdd6	0.026366156
33	0xbd99ce9c	-0.07510111
34	0x3d3a896e	0.04554122
35	0xbcac7291	-0.021050723
36	0xbc1a9ff9	-0.0094375545
37	0xbc389273	-0.011265385
38	0xbcad882e	-0.0211831
39	0x3c9ee8ac	0.019398056
40	0x3ce95075	0.028480748
41	0xbd8ff3e7	-0.070289426
42	0xbdd2927e	-0.102818474
43	0x3c3e4dcc	0.011615228
44	0x3d9535b4	0.07285634
45	0x3d2d5ac2	0.04232288
46	0xbb493651	-0.003070254
47	0x3cf0fe7c	0.029418223
48	0x3d24c0b2	0.04022283
49	0xbd92d1e2	-0.07168938
50	0x3c8b514f	0.017006544
51	0x3d581e83	0.052763473
52	0xbc652a5a	-0.013987148
53	0x3a3d1a7f	0.0007213726
54	0xbd55ea8b	-0.05222563
55	0x3ca558a3	0.020183867
56	0x3d5f9802	0.054588325
57	0xbd9d1686	-0.07670312
58	0x3d040afb	0.032237034
59	0x3d5a9c7f	0.053371903
60	0xba84b98e	-0.00101261
61	0x3de2e4a5	0.11078767
62	0xbc77f54c	-0.015134167
63	0x3d786535	0.060643394

bn_outlayer_in.running_mean f4 [64]
0	0xbb9d0606	-0.004791978
1	0x3b35cff2	0.0027742353
2	0x3962eb0b	0.000216406
3	0xbc8f4086	-0.017486822
4	0xbc1f4f69	-0.009723523
5	0xbcac401e	-0.021026667
6	0xbcc0e8e0	-0.023548543
7	0xbb096217	-0.0020963007
8	0xbca984ea	-0.020693261
9	0xbaf0d3d7	-0.001837368
10	0x3a7e8adf	0.00097100245
11	0xbb97394f	-0.004614986
12	0xbaba7cd3	-0.0014227874
13	0xbc6104de	-0.013734071
14	0x3a8a5293	0.0010553173
15	0xbcb3a6fd	-0.021930212
16	0xb901b840	-0.00012371037
17	0xb9d66a94	-0.00040896668
18	0xbb5c8050	-0.0033645816
19	0xba5791bc	-0.0008223315
20	0xb9c533f4	-0.00037613476
21	0x3ba87903	0.005141379
22	0xbc1633d4	-0.00916763
23	0xbb1cb2f2	-0.002391037
24	0x3ab12151	0.0013513957
25	0x3b6b006e	0.003585841
26	0xbbeaaf7d	-0.007162033
27	0xbc067cba	-0.008208448
28	0xbc45279e	-0.012033371
29	0x3b26a260	0.0025426373
30	0xbcb3e89b	-0.0219615
31	0xba98d5c4	-0.0011660387
32	0x3aabe87c	0.001311555
33	0x3b6669bd	0.003515824
34	0xbca3d88b	-0.020000717
35	0xbbeda748	-0.0072526075
36	0xbb959606	-0.0045650033
37	0xbb214de6	-0.0024613081
38	0xba4d472a	-0.00078307337
39	0x3ab3492c	0.0013678423
40	0xbce13a04	-0.027493484
41	0xbbc1f03b	-0.0059185303
42	0x3af7315f	0.0018859318
43	0xbca89034	-0.020576574
44	0x3b7510b3	0.0037393987
45	0x3a8fb1a8	0.001096298
46	0xbb4e9559	-0.0031522124
47	0xbc65234a	-0.013985464
48	0xbc33ea0f	-0.010981097
49	0xbbe7570d	-0.007059938
50	0xbc812e74	-0.01576922
51	0x3b85a539	0.004078534
52	0xbabc60e1	-0.0014372134
53	0x38b59891	8.65917e-05
54	0xbafb3edd	-0.0019168515
55	0xbbdec2ac	-0.006798109
56	0xbca5b732	-0.020228956
57	0xb972116f	-0.00023085413
58	0xbc951f54	-0.018203415
59	0xbcad1789	-0.021129386
60	0x38d71b1c	0.000102570484
61	0x3ba2ea4e	0.004971779
62	0xbc0f77b0	-0.008756563
63	0x3b8810b6	0.0041523827

bn_outlayer_in.running_var f4 [64]
0	0x3bff84b3	0.0077978014
1	0x3b2ffcde	0.0026853601
2	0x3b99a761	0.0046891426
3	0x3a3d8374	0.0007229366
4	0x3b5b5e12	0.0033472818
5	0x3bfaaa0c	0.0076496657
6	0x3a4bd368	0.00077753374
7	0x3b072968	0.0020624045
8	0x3a9d0f9b	0.00119828
9	0x3b9532d1	0.004553177
10	0x39a92eec	0.0003226915
11	0x3beeaaa5	0.007283526
12	0x3a577ebd	0.00082204846
13	0x3c191857	0.009344182
14	0x3bb07f19	0.005386245
15	0x3a996df9	0.0011705748
16	0x3bb1c73b	0.0054253615
17	0x3bcf0ab9	0.006318417
18	0x3bad8c1b	0.005296243
19	0x3b629f10	0.0034579672
20	0x3b3acaf4	0.0028502317
21	0x3b82f616	0.003996621
22	0x3b9e2450	0.004826106
23	0x3af7ce05	0.0018906003
24	0x3c22bb56	0.00993236
25	0x3b2ba22c	0.0026189191
26	0x3c1bca05	0.009508614
27	0x3c023eb4	0.00794952
28	0x3b18e383	0.0023328967
29	0x3b0bc26a	0.0021325597
30	0x3ac45a09	0.0014980446
31	0x3aab6731	0.0013077018
32	0x3aa5d8f9	0.0012653164
33	0x3bfb34d4	0.0076662097
34	0x3a238f0f	0.0006239274
35	0x3c1d09d3	0.009584862
36	0x3c0282a2	0.007965716
37	0x3b9099d4	0.004412869
38	0x3ad970fd	0.0016589459
39	0x3ade5357	0.0016962093
40	0x3b30ed6b	0.002699698
41	0x3bca06f6	0.0061653806
42	0x3b5b0dc9	0.0033424965
43	0x3a8eb7b1	0.0010888485
44	0x3b2a3663	0.0025972358
45	0x3b0414cf	0.0020154004
46	0x3beb34bc	0.0071779173
47	0x3c13a1f6	0.009010782
48	0x3bc2b5e0	0.0059420913
49	0x3bef34af	0.0072999815
50	0x3a8c6226	0.0010710403
51	0x3b09b37a	0.0021011517
52	0x3c219bf8	0.009863846
53	0x3a451fea	0.0007519709
54	0x3ac6d483	0.0015169535
55	0x3bdcf277	0.0067427712
56	0x3a959b18	0.0011414019
57	0x3b4767f5	0.0030426953
58	0x3a69322a	0.00088957197
59	0x3a9f8274	0.0012169615
60	0x3b198f81	0.0023431482
61	0x3c34f704	0.011045221
62	0x3b3fa9a3	0.0029245398
63	0x3b3ee769	0.002912963

gnn_layers.0.gnn.att_i f4 [1, 1, 64]
0	0xbd062d86	-0.03275826
1	0x3e9f7c7e	0.31149668
2	0xbce0c6f8	-0.027438626
3	0xbe927207	-0.2860262
4	0x3e4d448d	0.20045681
5	0xbd7fa1fd	-0.062410343
6	0xbe0619fe	-0.13095853
7	0xbdb7410a	-0.08947952
8	0x3e774f05	0.24151237
9	0xbcdc985c	-0.02692812
10	0x3e507029	0.20355286
11	0x3e8e677b	0.27813324
12	0xbe073452	-0.13203552
13	0x3d8bdafd	0.06828878
14	0xbe7210bb	-0.23639195
15	0x3e34ccc6	0.1765624
16	0xbe1bc444	-0.15211588
17	0x3e6f7550	0.23384595
18	0x3e1c4a2b	0.15262668
19	0x3e63daad	0.22251387
20	0xbe2b5c49	-0.16734423
21	0xbd55445e	-0.052067153
22	0x3e081898	0.13290632
23	0xbbe7fa0d	-0.007079369
24	0xbd2c65be	-0.042089216
25	0x3e4b8003	0.19873051
26	0xbe80d41e	-0.25161833
27	0xbdb2ea5a	-0.08736105
28	0x3dbfed44	0.09371427
29	0x3dea4d38	0.114405096
30	0x3ea537d2	0.3226915
31	0xbd0f7354	-0.035022095
32	0x3dce27e3	0.100662015
33	0xbe3b41cb	-0.18286817
34	0xbc324644	-0.01088101
35	0xbe4e9342	-0.20173362
36	0x3e485661	0.19564201
37	0x3d81a07e	0.063294396
38	0x3e1401fa	0.14453879
39	0x3e4fa4ec	0.20277756
40	0x3dc5a19c	0.09649965
41	0x3d1be85f	0.038063403
42	0xbbb52888	-0.0055285133
43	0xbe93c2db	-0.288596
44	0x3dbf4fde	0.09341405
45	0xbdd9b7c2	-0.10630752
46	0xbe42bb14	-0.19016677
47	0x3e41cd0c	0.18925875
48	0x3cdc9497	0.026926322
49	0xbdf7bf6a	-0.12097056
50	0xbe6fd10c	-0.23419589
51	0xbe7eb1e3	-0.24872546
52	0x3daa4225	0.08313397
53	0xbe19dfcc	-0.15026778
54	0xbdc0de7d	-0.09417436
55	0xbe737147	-0.2377368
56	0x3e84bf54	0.25927222
57	0x3d4cf510	0.050038397
58	0x3e66c9ab	0.22537868
59	0x3e942baf	0.28939578
60	0xbe552c3c	-0.20817655
61	0x3deb9ba2	0.11504294
62	0xbe2e7f8f	-0.17040847
63	0x3eae9934	0.3410126

gnn_layers.0.gnn.att_j f4 [1, 1, 64]
0	0x3e27cbd2	0.16386345
1	0xbe9a07b6	-0.30084008
2	0x3daf9846	0.08573966
3	0x3ddab37b	0.106787644
4	0xbd72bfe9	-0.05926505
5	0x3e70d226	0.23517665
6	0xbe924d4d	-0.285746
7	0xbdfa565e	-0.122235045
8	0x3e91e7b4	0.28497088
9	0x3e9ffcb6	0.3124749
10	0x3e0b3105	0.13592918
11	0xbe64a475	-0.2232836
12	0xbe8a35a1	-0.2699404
13	0xbe79ea75	-0.24405845
14	0xbd0b1454	-0.033954933
15	0x3e70e248	0.2352382
16	0x3e0f7893	0.14010839
17	0xbd800c1d	-0.062523104
18	0x3e7ebaf8	0.2487601
19	0x3e599e1d	0.21251722
20	0xbe19165e	-0.14949939
21	0xbdf82766	-0.1211689
22	0x3bf3e3a1	0.007442907
23	0x3d5d5a61	0.05404127
24	0x3c92a7c3	0.01790226
25	0x3daef209	0.08542258
26	0x3e6a37d2	0.22872856
27	0xbcb0f0f1	-0.021599265
28	0x3e1b68a1	0.15176632
29	0xbcd7f030	-0.026359648
30	0x3dd9143e	0.10599564
31	0x3d9a8cc3	0.075463794
32	0xbde821f7	-0.11334603
33	0xbdfd905f	-0.12381052
34	0x3dbc7d10	0.09203541
35	0xbe143f00	-0.14477158
36	0x3e467609	0.19380964
37	0xbe347a6d	-0.17624827
38	0x3e4165ba	0.18886462
39	0x3dcb47b9	0.099257894
40	0xbd930dc0	-0.07180357
41	0x3e4867b7	0.19570814
42	0xbd85433f	-0.06506967
43	0x3d561353	0.052264523
44	0x3d699593	0.05702741
45	0x3cc30acc	0.02380886
46	0x3d6d88fc	0.057991967
47	0x3d35d53e	0.044392817
48	0xbda0df5a	-0.07855101
49	0x3e27555b	0.16341154
50	0x3da6c480	0.08142948
51	0x3dda635a	0.10663481
52	0x3e3f1f45	0.18664272
53	0xbe2a54d9	-0.1663393
54	0xbdb719ea	-0.089404896
55	0x3d65e3e5	0.05612554
56	0x3e74aa10	0.23892999
57	0xbe9473cd	-0.289946
58	0xbe3fc516	-0.18727526
59	0xbdaabe53	-0.08337083
60	0xbe82d76a	-0.25554973
61	0xbe424070	-0.18969893
62	0x3e80a7bb	0.25127968
63	0xbc47ace1	-0.012187214

gnn_layers.0.gnn.att_em_i f4 [1, 1, 64]
0	0x3dabe698	0.08393592
1	0x3de4c448	0.1117025
2	0xbdd71cde	-0.10503553
3	0xbe106666	-0.14101562
4	0xbe01b022	-0.12664846
5	0xbca9661f	-0.020678578
6	0x3a8a4062	0.0010547752
7	0x3e5ebf7c	0.21752733
8	0xbd2c108e	-0.042007975
9	0xbdacf08f	-0.084443204
10	0x3d98982f	0.07450902
11	0xbe685fc6	-0.22692785
12	0xbe6446e3	-0.22292666
13	0x3e06bbec	0.13157624
14	0xbbe0489f	-0.0068445946
15	0xbcc8a036	-0.024490457
16	0xbc4eabd4	-0.012614209
17	0x3d9dea70	0.07710731
18	0xbdb24dfd	-0.08706281
19	0xbd1a7a4e	-0.037714295
20	0xbd6ff98a	-0.05858759
21	0xbdb1bea9	-0.08678944
22	0x3e15f516	0.14644274
23	0xbe113f16	-0.14184222
24	0x3dfdc1d9	0.12390489
25	0x3e109691	0.14119937
26	0x3d0f0b48	0.034922868
27	0x3d8c77c3	0.0685878
28	0xbcbc76aa	-0.023005802
29	0x3d0d26e6	0.034460925
30	0xbd1d5f30	-0.038420856
31	0x3e0555ae	0.13020965
32	0xbd3643b7	-0.04449817
33	0xbdb7ae83	-0.08968832
34	0x3dcc985e	0.09989999
35	0x3d98053c	0.074228734
36	0xbe2ad4dd	-0.16682763
37	0xbdf65eb7	-0.12029784
38	0xbd5f6fbb	-0.054549914
39	0x3d6e2f2a	0.058150448
40	0x3dd6b28c	0.10483274
41	0x3c9c9364	0.01911325
42	0xbe2bd1f5	-0.16779311
43	0x3d8b4855	0.068009056
44	0xbe33f337	-0.17573248
45	0x3e442339	0.19154061
46	0x3d07114f	0.03297549
47	0x3d21822d	0.039430786
48	0x3e4e69a7	0.2015749
49	0xbc8fe13f	-0.01756346
50	0x3da1d54c	0.07902011
51	0x3db0412b	0.0860618
52	0xbcf4918e	-0.029854562
53	0xbe6a5986	-0.22885713
54	0x3e669a3a	0.2251977
55	0x3e07d34e	0.132642
56	0x3d491606	0.04909327
57	0xbd4fa1ee	-0.050691538
58	0xbb8e7a86	-0.004348102
59	0x3d7ba2cb	0.06143455
60	0x3c550557	0.013001761
61	0x3d042727	0.0322639
62	0x3e23a694	0.15981513
63	0x3e084f05	0.13311394

gnn_layers.0.gnn.att_em_j f4 [1, 1, 64]
0	0xbeb0e84e	-0.34552234
1	0xbe912300	-0.28347015
2	0x3eb0302b	0.3441175
3	0x3e485581	0.19563867
4	0xbeaa2a54	-0.3323542
5	0x3e9a454d	0.30130997
6	0xbe407e14	-0.18798095
7	0xbe8a9c32	-0.27072293
8	0x3e72920a	0.23688522
9	0xbe99bab9	-0.3002527
10	0xbe2231ea	-0.15839353
11	0xbe975b09	-0.29561642
12	0xbe681d68	-0.22667468
13	0x3e93e76c	0.28887498
14	0xbea057ab	-0.31316885
15	0x3d23018f	0.03979641
16	0x3eaa7aac	0.33296716
17	0x3e9b9314	0.3038565
18	0x3ea7df71	0.3278766
19	0xbe9cd2ba	-0.30629522
20	0x3e96b6e1	0.294364
21	0x3e71e9f8	0.23624408
22	0x3e371824	0.17880303
23	0x3e7e1146	0.24811277
24	0xbea9abf2	-0.33138996
25	0xbea4283a	-0.3206194
26	0x3eb0138b	0.3438991
27	0x3e7cec1e	0.24699447
28	0x3e342100	0.17590714
29	0xbe95107f	-0.29114148
30	0x3e0f8305	0.14014824
31	0xbe43644e	-0.19081232
32	0xbdbf7510	-0.093485
33	0x3eae54cd	0.34049073
34	0x3e6caf7d	0.23113818
35	0x3ea530b0	0.32263708
36	0xbe99598c	-0.2995113
37	0xbead6746	-0.33867854
38	0x3d012c9d	0.031536687
39	0xbe9a5f99	-0.3015106
40	0xbe9d9caa	-0.30783588
41	0x3ea597b7	0.32342312
42	0x3e958177	0.29200336
43	0xbe054bd2	-0.13017204
44	0x3e8dab45	0.2766973
45	0x3e27c3f7	0.16383348
46	0x3e907554	0.28214514
47	0x3eaf35e3	0.342208
48	0xbe9549ae	-0.29157776
49	0xbea13a1f	-0.31489655
50	0x3e8a2782	0.26983267
51	0xbd9d788a	-0.076890066
52	0xbe8d46e2	-0.27593142
53	0xbe44854c	-0.19191474
54	0x3e9ebe45	0.3100454
55	0x3ea6ad90	0.32554293
56	0x3e0a60e3	0.13513522
57	0xbe994f9b	-0.29943547
58	0x3e58b689	0.21163382
59	0x3e4fe7cb	0.20303266
60	0x3e7f650a	0.24940887
61	0x3ebab7da	0.36468393
62	0x3eaf50ea	0.3424142
63	0xbe98f18c	-0.29871786

gnn_layers.0.gnn.bias f4 [64]
0	0xbad5ad30	-0.0016302224
1	0x39804c98	0.0002447113
2	0x38d80cd6	0.000103020735
3	0x3ac9a034	0.0015382827
4	0x3c03c7d2	0.008043246
5	0x3a40dd1d	0.0007357167
6	0x3c0bcfbf	0.008533417
7	0xbafa78e1	-0.0019109511
8	0xba58fe42	-0.00082776335
9	0x3aa77cf2	0.0012778325
10	0x39efb488	0.0004572014
11	0xbb51cb4b	-0.0032012041
12	0xb9b3e8f6	-0.0003431511
13	0xbb2bf9d8	-0.0026241448
14	0xbb223c1a	-0.0024755062
15	0x3b5d05aa	0.00337253
16	0xbb1c0f34	-0.0023812773
17	0xbb29fda4	-0.0025938535
18	0x3a8c2394	0.0010691755
19	0x3aaf1960	0.0013359003
20	0x3b5aa8a8	0.0033364687
21	0xba0361f7	-0.00050118513
22	0xbab4bd8a	-0.0013789397
23	0x3b253467	0.0025208236
24	0x3a038acc	0.0005017936
25	0xbb144a1e	-0.0022627185
26	0xb8ccf75a	-9.773551e-05
27	0x3ad9a122	0.0016603807
28	0x3be256d1	0.006907322
29	0xb9af51c8	-0.00033439533
30	0x3b3352f1	0.002736267
31	0xb9b00310	-0.00033571618
32	0x3b79f4c0	0.0038140267
33	0xbab0527b	-0.0013452315
34	0x3b06659d	0.0020507344
35	0x3b93ea90	0.004514046
36	0x3a45b53e	0.0007541961
37	0xbb928122	-0.0044709602
38	0x3afde002	0.0019369128
39	0x3a17f247	0.0005796295
40	0x3b96fa68	0.0046074875
41	0x3a95f396	0.0011440392
42	0xba08b13e	-0.00052143994
43	0x3b762ef0	0.0037564598
44	0xba93e7a3	-0.0011284243
45	0x3bb20462	0.0054326514
46	0x3ade6a97	0.0016969022
47	0xba925185	-0.0011163211
48	0x3b27f73f	0.0025629548
49	0x3906adcf	0.00012843985
50	0xbac83073	-0.0015273228
51	0x3b97df1a	0.00463475
52	0xbb0fd778	-0.0021948498
53	0xb912b4c7	-0.0001399099
54	0x3a9f544d	0.0012155861
55	0x3b016daf	0.0019749214
56	0x3abeb3a9	0.0014549393
57	0xbb8093d0	-0.0039238706
58	0x3b1f4327	0.00243015
59	0x3a32458d	0.0006800525
60	0x388a6130	6.5984554e-05
61	0x3aa1905d	0.0012326349
62	0x3ab7dcc5	0.0014027586
63	0xb9b20372	-0.00033953373

gnn_layers.0.gnn.lin.weight f4 [64, 15]
0	0x3e15a76f	0.14614652
1	0xbd28dc67	-0.041225817
2	0x3e88f79c	0.2675141
3	0x3c268f78	0.010166042
4	0xbdddbf16	-0.108274624
5	0x3dd09be3	0.10185983
6	0x3e2407df	0.16018628
7	0x3c3311c0	0.010929525
8	0x3e69b502	0.22822955
9	0xbe2d914a	-0.16949955
10	0x3de96408	0.113960326
11	0x3e129fb5	0.14318736
12	0x3e034d2f	0.12822412
13	0xbccfdc2c	-0.02537354
14	0x3e198b66	0.14994583
15	0xbe7a0843	-0.24417214
16	0xbe6e65bc	-0.23280996
17	0x3caf4dfa	0.021399487
18	0xbd57d5c5	-0.0526941
19	0x3e379033	0.17926101
20	0x3e2fae8e	0.17156431
21	0x3e22bd63	0.15892558
22	0xbe138dd7	-0.14409576
23	0xbe44663a	-0.19179621
24	0xbe8c84ed	-0.27445164
25	0x3db68740	0.08912516
26	0xbe6c69b5	-0.23087199
27	0xbe96a339	-0.29421404
28	0xbe0a64c2	-0.13514999
29	0xbe9ae93b	-0.30256066
30	0xbda67cf6	-0.08129303
31	0xbe2dbf51	-0.16967513
32	0xbe3bcfd4	-0.18340999
33	0x3e4e59de	0.20151469
34	0xbd50ef78	-0.051009625
35	0x3e6fe8a8	0.23428595
36	0xbc696164	-0.014244411
37	0xbda9a044	-0.08282521
38	0xbdf5990c	-0.11992082
39	0xbe508ad7	-0.20365463
40	0xbe759288	-0.23981678
41	0x3e099361	0.13435127
42	0xbe0b1e8e	-0.13585874
43	0xbeb7c441	-0.35891917
44	0x3e419553	0.18904619
45	0x3cf1240e	0.029436138
46	0xbe2a6d58	-0.16643274
47	0xbe86c3ba	-0.26321203
48	0xbe4e3145	-0.20135982
49	0xbe5c0871	-0.21487595
50	0x3e8dc06d	0.27685872
51	0x3e62395d	0.22092195
52	0x3d225fcd	0.039642144
53	0xbe893ecc	-0.26805723
54	0xbd3600dd	-0.044434417
55	0xbe73d5e0	-0.23812056
56	0x3d8baeed	0.06820474
57	0xbd50bd95	-0.05096205
58	0xbd6debfa	-0.058086373
59	0xbc980bf8	-0.018560395
60	0x3de25298	0.1105091
61	0x3e0074fc	0.12544626
62	0x3d6b6d69	0.05747739
63	0xbd4e7e3c	-0.050413355
64	0xbd45fe12	-0.048338003
65	0xbd077830	-0.033073604
66	0xbe73b4bb	-0.23799412
67	0x3e81ee29	0.25377014
68	0xbdef840b	-0.11695107
69	0x3e168fd9	0.14703311
70	0xbe2d597e	-0.1692867
71	0xbb52ba40	-0.003215447
72	0x3db22fae	0.087005004
73	0xbe7b8234	-0.24561387
74	0x3de9f9b8	0.11424583
75	0xbe4246cb	-0.18972318
76	0x3d134970	0.035958707
77	0xbd998f13	-0.07497992
78	0x3e154ca5	0.14580019
79	0x3e94196d	0.28925648
80	0x3daf389c	0.08555719
81	0x3c0e7036	0.008693745
82	0xbdfbcc05	-0.12294773
83	0x3dc63dab	0.09679731
84	0xbde69c15	-0.11260239
85	0x3e04381e	0.12912032
86	0xbdf9b1c2	-0.12192108
87	0x3e3ed4ff	0.18635939
88	0x3e461a11	0.19345881
89	0x3e6e46d4	0.23269206
90	0xbcb42b6a	-0.021993358
91	0x3df643ab	0.120246254
92	0xbe88680e	-0.26641887
93	0x3e613b67	0.21995316
94	0xbda398d9	-0.07988138
95	0x3dcd9da7	0.100398354
96	0xbd4dd1a4	-0.050248757
97	0xbdc1114f	-0.094271295
98	0xbe0a1cee	-0.13487598
99	0x3e364672	0.1780031
100	0xbe1a9f6f	-0.15099882
101	0xbd8ec2b5	-0.06970731
102	0x3e083c28	0.13304198
103	0x3cc4face	0.024045374
104	0xbe618364	-0.22022778
105	0xbea0fca7	-0.31442758
106	0xbe2b5558	-0.16731775
107	0x3e5843ce	0.21119615
108	0xbe64d2de	-0.22346064
109	0x3e0087a5	0.12551744
110	0x3e32b1f5	0.17450698
111	0xbdfe2012	-0.12408461
112	0xbe0d1a6c	-0.1377961
113	0xbe66a96b	-0.22525565
114	0x3cc7d7e7	0.024394942
115	0xbd63f770	-0.055655897
116	0xbc35f2e6	-0.011105275
117	0x3dcc20b8	0.09967178
118	0x3dbe6033	0.09295692
119	0xbdcc508f	-0.09976303
120	0x3c8e62d2	0.017381106
121	0x3d5fa331	0.05459899
122	0x3c8854bd	0.016641969
123	0x3cd45617	0.025919957
124	0xbe09ccbf	-0.1345701
125	0x3e6052e2	0.21906617
126	0xbd1cc8bd	-0.038277376
127	0xbd540aec	-0.05176823
128	0xbe795ff1	-0.24353005
129	0xbe4d0322	-0.20020726
130	0x3c697208	0.014248379
131	0xbcded286	-0.027199995
132	0xbe1671fe	-0.14691922
133	0x3e107b86	0.1410962
134	0xbd562f02	-0.052290924
135	0x3dfdb804	0.12388614
136	0x3e713bc7	0.2355796
137	0xbe094044	-0.13403422
138	0xbe143c5c	-0.1447615
139	0xbd08d7c9	-0.033408914
140	0xbbb1b033	-0.005422616
141	0xbe0e39fc	-0.13889307
142	0xbd876a4f	-0.06612074
143	0xbc534321	-0.012894423
144	0x3e0b6802	0.13613895
145	0x3e83daff	0.25753018
146	0x3e4ab9e7	0.19797479
147	0x3c3c9ed1	0.011512474
148	0xbd451cbf	-0.048123118
149	0x3df8d1f0	0.121494174
150	0x3ccfbbce	0.025358107
151	0xbcfbe5a9	-0.030749159
152	0x3e093e17	0.13402592
153	0xbe7345bf	-0.23757075
154	0xbe441fcd	-0.19152756
155	0x3d2baa95	0.041910727
156	0xbdb47120	-0.088106394
157	0xbe2749e0	-0.16336775
158	0xbe7978a7	-0.24362431
159	0x3e5914ba	0.21199313
160	0x3a2a9fd0	0.0006508799
161	0xbdfdbcb3	-0.12389507
162	0xbe26496b	-0.16238944
163	0x3d23af28	0.039961964
164	0xbe86c4d8	-0.26322055
165	0x3b9cc51b	0.004784239
166	0xbc33e37c	-0.0109795295
167	0x3dea3002	0.11434938
168	0x3dc4c1c2	0.09607269
169	0xbe426d9f	-0.1898713
170	0x3ddf34ab	0.108987175
171	0x3e4b552e	0.19856712
172	0x3c4f0e14	0.012637634
173	0x3e18a1e5	0.14905508
174	0xbdee26f1	-0.11628521
175	0x3d39a86c	0.045326635
176	0x3db8ea28	0.09029037
177	0xbe0c6d84	-0.13713652
178	0x3e35e747	0.17764007
179	0xbe982d19	-0.29721907
180	0xbe0f4ec7	-0.13994895
181	0xbe2658e2	-0.16244844
182	0xbe474813	-0.19461088
183	0xbe1e1c9d	-0.15440603
184	0xbe8de3a2	-0.27712733
185	0x3cf290b3	0.029610014
186	0xbd3ab080	-0.04557848
187	0xbe60c92e	-0.21951744
188	0xbca13c81	-0.01968217
189	0xbd62f4d5	-0.05540927
190	0x3de67638	0.11253017
191	0xbe7219b0	-0.23642612
192	0xbd7967ec	-0.060890123
193	0x3d864306	0.065557525
194	0x3e140dc6	0.14458379
195	0xbc77ad56	-0.01511701
196	0x3d60b00e	0.0548554
197	0x3e8e22ed	0.2776102
198	0xbdc9b0a1	-0.098481424
199	0x3e1bca18	0.15213811
200	0x3e4f8064	0.20263821
201	0xbe82a4ec	-0.2551645
202	0x3d8abff4	0.067748934
203	0x3e2b3789	0.16720404
204	0xbd462f2e	-0.048384838
205	0x3e22dbba	0.15904132
206	0x3cce9b82	0.025220636
207	0x3e62ef8a	0.2216169
208	0x3d1faca9	0.03898302
209	0xbe6726c6	-0.22573385
210	0x3e650b26	0.22367534
211	0x3dcb6176	0.099306986
212	0x3e44a2de	0.19202754
213	0x3db9019a	0.090335086
214	0x3e1aa45f	0.15101765
215	0x3e3e7232	0.1859825
216	0x3dad4edc	0.08462307
217	0xbd03d4b5	-0.032185275
218	0x3ccce34f	0.025010733
219	0xbe322788	-0.17397892
220	0x3d234315	0.039858896
221	0xbddbaac2	-0.10725929
222	0x3d4ec909	0.05048469
223	0xbe51cdbd	-0.20488639
224	0x3e6fe757	0.23428093
225	0xbe8bf0a0	-0.2733202
226	0x3dc03b66	0.09386329
227	0x3e2faf68	0.17156756
228	0xbe89123c	-0.26771724
229	0x3e768b0b	0.24076478
230	0xbe57e08c	-0.21081752
231	0xbd86540f	-0.06559002
232	0x3e0759a4	0.13217789
233	0xbdbea618	-0.093090236
234	0x3e71b713	0.23604994
235	0xbe0981a5	-0.13428362
236	0xbd34435b	-0.044009548
237	0xbe484fee	-0.19561741
238	0xbe12b04d	-0.14325066
239	0x3e7da5ef	0.2477033
240	0x3e6ca518	0.23109853
241	0x3d1bc0e3	0.038025748
242	0xbbe52f88	-0.0069941916
243	0xbe588140	-0.21143055
244	0x3e6bb477	0.2301806
245	0xbc3acefb	-0.011401887
246	0xbda22aac	-0.07918295
247	0xbe3fc6c7	-0.18728171
248	0x3e557f8a	0.20849434
249	0x3e225895	0.15854104
250	0x3e46119f	0.1934266
251	0x3cca5a0a	0.024701137
252	0xbe18cf55	-0.14922841
253	0x3e060714	0.13088638
254	0x3dd06a64	0.101765424
255	0xbc5fa4c0	-0.013650119

gnn_layers.0.bn.weight f4 [64]
0	0x3f624c9f	0.88398165
1	0x3f3b73f2	0.73223794
2	0x3f4ba010	0.7954111
3	0x3f571b0c	0.84025645
4	0x3f59ebcb	0.85125417
5	0x3f5462a3	0.8296301
6	0x3f354a49	0.70816475
7	0x3f40cb94	0.75310636
8	0x3f408cb2	0.75214684
9	0x3f59125a	0.8479363
10	0x3f400308	0.75004625
11	0x3f61faa8	0.88273096
12	0x3f68377c	0.9070966
13	0x3f76db09	0.9642797
14	0x3f559833	0.8343536
15	0x3f33e9cf	0.7027864
16	0x3f4ff152	0.812276
17	0x3f6753b9	0.90362126
18	0x3f4652ac	0.774699
19	0x3f52157e	0.82064044
20	0x3f4f691b	0.81019753
21	0x3f5bf341	0.8591805
22	0x3f689feb	0.90869015
23	0x3f47a7b4	0.7799027
24	0x3f6db2d1	0.9285098
25	0x3f552b1d	0.8326891
26	0x3f4ee1a6	0.8081306
27	0x3f5e65ed	0.86874276
28	0x3f6b053b	0.91804856
29	0x3f3dccdf	0.74140733
30	0x3f30d196	0.690698
31	0x3f424597	0.75887436
32	0x3f4a7e96	0.79099405
33	0x3f52fc9d	0.8241671
34	0x3f47dce6	0.7807144
35	0x3f539abc	0.8265798
36	0x3f53fb0e	0.82804954
37	0x3f4e480e	0.80578697
38	0x3f43777b	0.7635419
39	0x3f4bc51d	0.79597646
40	0x3f4b693d	0.79457456
41	0x3f6010ee	0.8752583
42	0x3f37920d	0.7170723
43	0x3f45e011	0.77295023
44	0x3f554b12	0.83317673
45	0x3f3c8e43	0.73654574
46	0x3f51067e	0.8165053
47	0x3f6ccf81	0.92504126
48	0x3f57f483	0.8435747
49	0x3f4fa73f	0.8111457
50	0x3f6b19e6	0.9183639
51	0x3f4aff0e	0.7929543
52	0x3f5bacf6	0.8581079
53	0x3f48e01c	0.78466964
54	0x3f37e731	0.71837145
55	0x3f67a410	0.90484715
56	0x3f4ea7e0	0.80724907
57	0x3f390c30	0.7228422
58	0x3f5168b0	0.81800365
59	0x3f301f88	0.6879811
60	0x3f5f902c	0.87329364
61	0x3f271d68	0.65279245
62	0x3f51f8a1	0.8202
63	0x3f48884f	0.7833299

gnn_layers.0.bn.bias f4 [64]
0	0x3d897a68	0.067128
1	0x3e3247e7	0.17410241
2	0x3e240494	0.16017371
3	0x3e0468b1	0.12930562
4	0x3d80adee	0.062831745
5	0x3dcc4cc1	0.09975577
6	0x3e49dd22	0.19713262
7	0x3e178383	0.14796261
8	0x3e03e68b	0.12880914
9	0x3da668fa	0.081254914
10	0x3e83ac4b	0.25717387
11	0x3d79dcf5	0.061001737
12	0x3d6c8d23	0.057751786
13	0xbd0acc5b	-0.033886295
14	0xbda05867	-0.078293614
15	0x3e250e9a	0.16118851
16	0xbdba0cd3	-0.09084477
17	0xbd4d68d9	-0.05014882
18	0x3dedfa63	0.11620023
19	0x3e223e86	0.15844163
20	0x3e23ce02	0.15996554
21	0xbd8d9b36	-0.0691437
22	0x3d426671	0.047460977
23	0x3e248e26	0.1606985
24	0x3d43520f	0.04768568
25	0xbdb35286	-0.087559745
26	0x3dbb9fb0	0.09161317
27	0x3d8d90c6	0.06912379
28	0x3d4d83b4	0.05017443
29	0xbdefd469	-0.11710436
30	0x3e1778fc	0.14792246
31	0x3e1b4970	0.15164733
32	0x3e1c30ad	0.15252943
33	0xbda3a448	-0.079903185
34	0x3e2e8350	0.17042279
35	0x3db52d98	0.08846587
36	0x3dba237c	0.09088799
37	0x3ddb056c	0.106943935
38	0x3e0bf4c5	0.13667591
39	0x3e2a78c1	0.16647626
40	0x3ddbb857	0.107285194
41	0x3d8cb51c	0.06870481
42	0xbe0313d6	-0.12800536
43	0x3e0d8d2f	0.13823389
44	0x3e35b024	0.17742974
45	0x3e53679d	0.20644994
46	0x3dc6a79b	0.09699937
47	0xbd41e1bb	-0.047334414
48	0x3dc18cc8	0.0945068
49	0x3da625dd	0.081126906
50	0x3d87546c	0.06607899
51	0x3e4be491	0.1991141
52	0x3d6bb8b5	0.057549197
53	0x3e062de6	0.13103446
54	0x3e4b86b1	0.198756
55	0xbd6a60f8	-0.057221383
56	0x3e03f44c	0.1288616
57	0xbdf3b566	-0.118998334
58	0x3de7463a	0.112926915
59	0x3e08268a	0.13295951
60	0x3e13f27e	0.14447972
61	0x3e680adb	0.22660391
62	0x3d8f5537	0.06998675
63	0x3e1e24a5	0.15443666

gnn_layers.0.bn.running_mean f4 [64]
0	0x3f5f9191	0.8733149
1	0xbf953f68	-1.1659975
2	0xbf2f8426	-0.6856102
3	0xbf30b121	-0.6902028
4	0x3b44ad79	0.0030010624
5	0x3f1da26d	0.6157597
6	0xbe6f9f17	-0.23400532
7	0xbefcdcb3	-0.4938713
8	0xbea24b1f	-0.31697938
9	0x3ecab5cf	0.39591834
10	0xbf533b72	-0.8251258
11	0x3e3e3e87	0.1857854
12	0xbf72b2c9	-0.94804054
13	0x3f0f962e	0.5608853
14	0x3f2aba22	0.66690266
15	0xbe6ddb3c	-0.23228163
16	0x3f06f271	0.52713686
17	0x3d04ed97	0.032453146
18	0x3ed504b2	0.41605145
19	0xbed99382	-0.42495352
20	0xbef51fc8	-0.4787581
21	0x3f099f9b	0.53759164
22	0x3f066292	0.52494156
23	0xbf52e621	-0.823824
24	0x3d547dd2	0.051877804
25	0x3ee2152a	0.44156772
26	0x3f5d60ee	0.8647603
27	0x3db78b2b	0.08962091
28	0xba9978bc	-0.0011708955
29	0x3ea0b423	0.31387433
30	0xbea41812	-0.32049614
31	0xbf271c7c	-0.6527784
32	0xbf12f3d8	-0.57403326
33	0x3f09b111	0.53785807
34	0xbf72348b	-0.94611424
35	0x3d636312	0.055514403
36	0x3efb0392	0.4902616
37	0xbaedffee	-0.0018157938
38	0xbf4cb9a4	-0.79970765
39	0xbf71a82b	-0.9439723
40	0xbe8863f4	-0.26638758
41	0x3f355915	0.70839053
42	0x3e0df8a2	0.13864377
43	0xbf4672df	-0.7751903
44	0xbe696b94	-0.22794944
45	0xbf12b14d	-0.5730179
46	0x3efdbac4	0.49556553
47	0x3eab40be	0.33447832
48	0xbb012adb	-0.0019709382
49	0x3f3ada04	0.72988915
50	0xbeb97285	-0.36220184
51	0xbf741d63	-0.9535734
52	0x3e3f529f	0.18683861
53	0xbf8be5b9	-1.0929481
54	0xbed50fcb	-0.41613612
55	0x3db11ce1	0.08648086
56	0xbf809ffc	-1.0048823
57	0x3e2de583	0.16982083
58	0xbf74b39d	-0.9558657
59	0xbf318ab2	-0.6935226
60	0xbf435172	-0.7629615
61	0xbe4aa7c0	-0.19790554
62	0x3c3452d4	0.011006076
63	0xbf3a31ef	-0.7273244

gnn_layers.0.bn.running_var f4 [64]
0	0x3e13e8cf	0.14444278
1	0x3e83215e	0.25611395
2	0x3db59fc1	0.08868361
3	0x3db78a1e	0.08961891
4	0x391053b8	0.00013764098
5	0x3d945da5	0.07244424
6	0x3c389c49	0.01126773
7	0x3d38c6f0	0.045111597
8	0x3c9d8c35	0.019231895
9	0x3cf17e80	0.029479265
10	0x3e0463a6	0.12928638
11	0x3bdea35a	0.0067943754
12	0x3e2d12c0	0.16901684
13	0x3d75b20a	0.059984244
14	0x3dac923c	0.084263295
15	0x3c297de5	0.010344957
16	0x3d586929	0.052834664
17	0x3a12b1b9	0.0005595941
18	0x3d072227	0.032991555
19	0x3d0de327	0.034640457
20	0x3d3acbd0	0.045604527
21	0x3d610953	0.054940533
22	0x3d53a36a	0.051669516
23	0x3e03eba6	0.12882861
24	0x3a6b51fa	0.0008976754
25	0x3d1d47e4	0.03839864
26	0x3e111a6d	0.14170237
27	0x3ad92f7a	0.0016569935
28	0x38c238e1	9.2612354e-05
29	0x3c9dde2d	0.01927098
30	0x3ca83b14	0.020535983
31	0x3da42ca2	0.080163255
32	0x3d80a5d2	0.06281628
33	0x3d6237b2	0.055228896
34	0x3e2e3640	0.17012882
35	0x3a2ac500	0.00065143406
36	0x3d383a33	0.044977378
37	0x392d3e68	0.00016521814
38	0x3df90ccd	0.12160645
39	0x3e2b610d	0.1673624
40	0x3c6c14a8	0.014409222
41	0x3dc436d6	0.095807716
42	0x3b823884	0.0039740223
43	0x3de98945	0.11403135
44	0x3c201d3a	0.009772593
45	0x3d804372	0.06262864
46	0x3d3e4183	0.046449196
47	0x3cadda24	0.021222182
48	0x398b9a84	0.0002662727
49	0x3dcf71aa	0.101291016
50	0x3cc82618	0.024432227
51	0x3e34214c	0.17590827
52	0x3be2d0f4	0.006921882
53	0x3e6693f0	0.22517371
54	0x3d063d81	0.0327735
55	0x3afef62f	0.001945203
56	0x3e442169	0.1915337
57	0x3bc6ff03	0.0060728802
58	0x3e30895e	0.17239901
59	0x3dbd6616	0.09247987
60	0x3de35aac	0.11101279
61	0x3c0ccf28	0.008594312
62	0x39f4c330	0.00046684733
63	0x3dccf55a	0.100077346

out_layer.mlp.0.weight f4 [1, 64]
0	0xbcafa72b	-0.021442017
1	0x3d54b4c7	0.051930215
2	0x3d554608	0.05206874
3	0xbddb418b	-0.10705861
4	0xbd1d4173	-0.038392495
5	0x3df1ff8b	0.11816319
6	0xbdc80f87	-0.097685866
7	0x3d8ae22b	0.06781419
8	0xbd9c3e0d	-0.07629023
9	0xbc2c2fff	-0.01050949
10	0x3d6b1a2c	0.057398006
11	0xbbc98855	-0.0061502852
12	0x3d2ccda0	0.042188287
13	0x3d504db8	0.05085537
14	0x3d786583	0.060643684
15	0xbdc9063c	-0.09815642
16	0x3d192019	0.037384126
17	0x3d346ec3	0.044050943
18	0xbd10b152	-0.035325356
19	0x3d381302	0.044940002
20	0x3d7b3b09	0.061335597
21	0x3cfa8d4f	0.03058496
22	0xbd45c24c	-0.048281
23	0x3d9a8e45	0.07546667
24	0x3d15a33e	0.036532633
25	0x3d4c9d06	0.049954437
26	0xbcc46b47	-0.023976935
27	0xbd1c9bc3	-0.038234483
28	0xbd01f243	-0.03172518
29	0x3d5ed09c	0.054398164
30	0xbda1be09	-0.078975745
31	0x3d569819	0.052391145
32	0x3d665c16	0.056240164
33	0x3d0c74d5	0.034291107
34	0xbdf0cf61	-0.117583044
35	0xbc8a40f3	-0.016876673
36	0xbc8cb2a9	-0.017175036
37	0xbc6de1e5	-0.0145191895
38	0x3dbc30f0	0.091890216
39	0x3db001b2	0.08594073
40	0xbd9c5293	-0.07632937
41	0xbcdaa497	-0.02668981
42	0x3d09b1b1	0.033616725
43	0xbe08736d	-0.13325281
44	0x3d708e2e	0.058729343
45	0x3dcbd074	0.09951869
46	0xbc8d5446	-0.017252099
47	0x3d1a8bc9	0.037730966
48	0xbba1e121	-0.0049401675
49	0xbcb8e725	-0.022571156
50	0xbd992a07	-0.07478719
51	0x3d9ebe66	0.07751159
52	0xbcae95b7	-0.021311624
53	0x3d567b5d	0.052363742
54	0x3d318ca6	0.043347023
55	0x3d9800ef	0.07422053
56	0xbda79efc	-0.08184621
57	0x3d8af3b2	0.067847624
58	0xbdcdef25	-0.10055379
59	0xbd8c838f	-0.0686103
60	0x3dbe85eb	0.093028866
61	0x3d1b7adc	0.037958965
62	0xbbc2d797	-0.0059461105
63	0x3d40aaf8	0.04703805
